{
  "nodes": [
    {
      "op": "null", 
      "name": "target", 
      "inputs": []
    }, 
    {
      "op": "null", 
      "name": "source_target_embed_weight", 
      "attrs": {"__shape__": "(19581, 512)"}, 
      "inputs": []
    }, 
    {
      "op": "Embedding", 
      "name": "target_embed_embed", 
      "attrs": {
        "input_dim": "19581", 
        "output_dim": "512"
      }, 
      "inputs": [[0, 0, 0], [1, 0, 0]]
    }, 
    {
      "op": "_mul_scalar", 
      "name": "_mulscalar7", 
      "attrs": {"scalar": "22.627416997969522"}, 
      "inputs": [[2, 0, 0]]
    }, 
    {
      "op": "Custom", 
      "name": "target_pos_embed_positional_encodings", 
      "attrs": {
        "depth": "512", 
        "length": "100", 
        "op_type": "positional_encodings"
      }, 
      "inputs": []
    }, 
    {
      "op": "BlockGrad", 
      "name": "blockgrad2", 
      "inputs": [[4, 0, 0]]
    }, 
    {
      "op": "broadcast_add", 
      "name": "broadcast_add1", 
      "inputs": [[3, 0, 0], [5, 0, 0]]
    }, 
    {
      "op": "Dropout", 
      "name": "dropout13", 
      "attrs": {"p": "0.1"}, 
      "inputs": [[6, 0, 0]]
    }, 
    {
      "op": "null", 
      "name": "decoder_transformer_0_att_self_pre_norm_gamma", 
      "attrs": {"__init__": "[\"constant\", {\"value\": 1.0}]"}, 
      "inputs": []
    }, 
    {
      "op": "null", 
      "name": "decoder_transformer_0_att_self_pre_norm_beta", 
      "attrs": {"__init__": "[\"constant\", {\"value\": 0.0}]"}, 
      "inputs": []
    }, 
    {
      "op": "LayerNorm", 
      "name": "decoder_transformer_0_att_self_pre_norm", 
      "attrs": {
        "axis": "-1", 
        "eps": "1e-06", 
        "output_mean_var": "False"
      }, 
      "inputs": [[7, 0, 0], [8, 0, 0], [9, 0, 0]]
    }, 
    {
      "op": "null", 
      "name": "decoder_transformer_0_att_self_i2h_weight", 
      "inputs": []
    }, 
    {
      "op": "FullyConnected", 
      "name": "decoder_transformer_0_att_self_qkv_transform", 
      "attrs": {
        "flatten": "False", 
        "no_bias": "True", 
        "num_hidden": "1536"
      }, 
      "inputs": [[10, 0, 0], [11, 0, 0]]
    }, 
    {
      "op": "SliceChannel", 
      "name": "split6", 
      "attrs": {
        "axis": "2", 
        "num_outputs": "3"
      }, 
      "inputs": [[12, 0, 0]]
    }, 
    {
      "op": "_mul_scalar", 
      "name": "_mulscalar8", 
      "attrs": {"scalar": "0.125"}, 
      "inputs": [[13, 0, 0]]
    }, 
    {
      "op": "Reshape", 
      "name": "reshape50", 
      "attrs": {"shape": "(0, -1, 8, 64)"}, 
      "inputs": [[14, 0, 0]]
    }, 
    {
      "op": "transpose", 
      "name": "transpose24", 
      "attrs": {"axes": "(0, 2, 1, 3)"}, 
      "inputs": [[15, 0, 0]]
    }, 
    {
      "op": "Reshape", 
      "name": "reshape51", 
      "attrs": {"shape": "(-3, -1, 64)"}, 
      "inputs": [[16, 0, 0]]
    }, 
    {
      "op": "Reshape", 
      "name": "reshape52", 
      "attrs": {"shape": "(0, -1, 8, 64)"}, 
      "inputs": [[13, 1, 0]]
    }, 
    {
      "op": "transpose", 
      "name": "transpose25", 
      "attrs": {"axes": "(0, 2, 1, 3)"}, 
      "inputs": [[18, 0, 0]]
    }, 
    {
      "op": "Reshape", 
      "name": "reshape53", 
      "attrs": {"shape": "(-3, -1, 64)"}, 
      "inputs": [[19, 0, 0]]
    }, 
    {
      "op": "batch_dot", 
      "name": "decoder_transformer_0_att_self_dot", 
      "attrs": {"transpose_b": "True"}, 
      "inputs": [[17, 0, 0], [20, 0, 0]]
    }, 
    {
      "op": "Custom", 
      "name": "decoder_transformer_target_bias", 
      "attrs": {
        "length": "100", 
        "op_type": "auto_regressive_bias"
      }, 
      "inputs": []
    }, 
    {
      "op": "BlockGrad", 
      "name": "blockgrad1", 
      "inputs": [[22, 0, 0]]
    }, 
    {
      "op": "broadcast_add", 
      "name": "decoder_transformer_0_att_self_bias_add", 
      "inputs": [[21, 0, 0], [23, 0, 0]]
    }, 
    {
      "op": "softmax", 
      "name": "softmax6", 
      "attrs": {"axis": "-1"}, 
      "inputs": [[24, 0, 0]]
    }, 
    {
      "op": "Dropout", 
      "name": "dropout14", 
      "attrs": {"p": "0.1"}, 
      "inputs": [[25, 0, 0]]
    }, 
    {
      "op": "Reshape", 
      "name": "reshape54", 
      "attrs": {"shape": "(0, -1, 8, 64)"}, 
      "inputs": [[13, 2, 0]]
    }, 
    {
      "op": "transpose", 
      "name": "transpose26", 
      "attrs": {"axes": "(0, 2, 1, 3)"}, 
      "inputs": [[27, 0, 0]]
    }, 
    {
      "op": "Reshape", 
      "name": "reshape55", 
      "attrs": {"shape": "(-3, -1, 64)"}, 
      "inputs": [[28, 0, 0]]
    }, 
    {
      "op": "batch_dot", 
      "name": "decoder_transformer_0_att_self_contexts", 
      "inputs": [[26, 0, 0], [29, 0, 0]]
    }, 
    {
      "op": "Reshape", 
      "name": "reshape56", 
      "attrs": {"shape": "(-4, -1, 8, 0, 64)"}, 
      "inputs": [[30, 0, 0]]
    }, 
    {
      "op": "transpose", 
      "name": "transpose27", 
      "attrs": {"axes": "(0, 2, 1, 3)"}, 
      "inputs": [[31, 0, 0]]
    }, 
    {
      "op": "Reshape", 
      "name": "reshape57", 
      "attrs": {"shape": "(-1, 0, 512)"}, 
      "inputs": [[32, 0, 0]]
    }, 
    {
      "op": "null", 
      "name": "decoder_transformer_0_att_self_h2o_weight", 
      "inputs": []
    }, 
    {
      "op": "FullyConnected", 
      "name": "fullyconnected18", 
      "attrs": {
        "flatten": "False", 
        "no_bias": "True", 
        "num_hidden": "512"
      }, 
      "inputs": [[33, 0, 0], [34, 0, 0]]
    }, 
    {
      "op": "Dropout", 
      "name": "decoder_transformer_0_att_self_post_dropout", 
      "attrs": {"p": "0.1"}, 
      "inputs": [[35, 0, 0]]
    }, 
    {
      "op": "elemwise_add", 
      "name": "decoder_transformer_0_att_self_post_residual", 
      "inputs": [[36, 0, 0], [7, 0, 0]]
    }, 
    {
      "op": "null", 
      "name": "decoder_transformer_0_att_enc_pre_norm_gamma", 
      "attrs": {"__init__": "[\"constant\", {\"value\": 1.0}]"}, 
      "inputs": []
    }, 
    {
      "op": "null", 
      "name": "decoder_transformer_0_att_enc_pre_norm_beta", 
      "attrs": {"__init__": "[\"constant\", {\"value\": 0.0}]"}, 
      "inputs": []
    }, 
    {
      "op": "LayerNorm", 
      "name": "decoder_transformer_0_att_enc_pre_norm", 
      "attrs": {
        "axis": "-1", 
        "eps": "1e-06", 
        "output_mean_var": "False"
      }, 
      "inputs": [[37, 0, 0], [38, 0, 0], [39, 0, 0]]
    }, 
    {
      "op": "null", 
      "name": "decoder_transformer_0_att_enc_q2h_weight", 
      "inputs": []
    }, 
    {
      "op": "FullyConnected", 
      "name": "decoder_transformer_0_att_enc_q_transform", 
      "attrs": {
        "flatten": "False", 
        "no_bias": "True", 
        "num_hidden": "512"
      }, 
      "inputs": [[40, 0, 0], [41, 0, 0]]
    }, 
    {
      "op": "_mul_scalar", 
      "name": "_mulscalar9", 
      "attrs": {"scalar": "0.125"}, 
      "inputs": [[42, 0, 0]]
    }, 
    {
      "op": "Reshape", 
      "name": "reshape58", 
      "attrs": {"shape": "(0, -1, 8, 64)"}, 
      "inputs": [[43, 0, 0]]
    }, 
    {
      "op": "transpose", 
      "name": "transpose28", 
      "attrs": {"axes": "(0, 2, 1, 3)"}, 
      "inputs": [[44, 0, 0]]
    }, 
    {
      "op": "Reshape", 
      "name": "reshape59", 
      "attrs": {"shape": "(-3, -1, 64)"}, 
      "inputs": [[45, 0, 0]]
    }, 
    {
      "op": "null", 
      "name": "source", 
      "inputs": []
    }, 
    {
      "op": "SliceChannel", 
      "name": "source_embed_factor_split", 
      "attrs": {
        "axis": "2", 
        "num_outputs": "3", 
        "squeeze_axis": "True"
      }, 
      "inputs": [[47, 0, 0]]
    }, 
    {
      "op": "Embedding", 
      "name": "source_embed_embed", 
      "attrs": {
        "input_dim": "19581", 
        "output_dim": "512"
      }, 
      "inputs": [[48, 0, 0], [1, 0, 0]]
    }, 
    {
      "op": "null", 
      "name": "source_embed_factor0_weight", 
      "attrs": {"__shape__": "(8, 4)"}, 
      "inputs": []
    }, 
    {
      "op": "Embedding", 
      "name": "source_embed_factor0_embed", 
      "attrs": {
        "input_dim": "8", 
        "output_dim": "4"
      }, 
      "inputs": [[48, 1, 0], [50, 0, 0]]
    }, 
    {
      "op": "null", 
      "name": "source_embed_factor1_weight", 
      "attrs": {"__shape__": "(6, 4)"}, 
      "inputs": []
    }, 
    {
      "op": "Embedding", 
      "name": "source_embed_factor1_embed", 
      "attrs": {
        "input_dim": "6", 
        "output_dim": "4"
      }, 
      "inputs": [[48, 2, 0], [52, 0, 0]]
    }, 
    {
      "op": "Concat", 
      "name": "source_embed_embed_plus_factors", 
      "attrs": {
        "dim": "2", 
        "num_args": "3"
      }, 
      "inputs": [[49, 0, 0], [51, 0, 0], [53, 0, 0]]
    }, 
    {
      "op": "_mul_scalar", 
      "name": "_mulscalar0", 
      "attrs": {"scalar": "22.80350850198276"}, 
      "inputs": [[54, 0, 0]]
    }, 
    {
      "op": "Custom", 
      "name": "source_pos_embed_positional_encodings", 
      "attrs": {
        "depth": "520", 
        "length": "100", 
        "op_type": "positional_encodings"
      }, 
      "inputs": []
    }, 
    {
      "op": "BlockGrad", 
      "name": "blockgrad0", 
      "inputs": [[56, 0, 0]]
    }, 
    {
      "op": "broadcast_add", 
      "name": "broadcast_add0", 
      "inputs": [[55, 0, 0], [57, 0, 0]]
    }, 
    {
      "op": "Dropout", 
      "name": "dropout0", 
      "attrs": {"p": "0.1"}, 
      "inputs": [[58, 0, 0]]
    }, 
    {
      "op": "null", 
      "name": "encoder_transformer_0_att_self_pre_norm_gamma", 
      "attrs": {"__init__": "[\"constant\", {\"value\": 1.0}]"}, 
      "inputs": []
    }, 
    {
      "op": "null", 
      "name": "encoder_transformer_0_att_self_pre_norm_beta", 
      "attrs": {"__init__": "[\"constant\", {\"value\": 0.0}]"}, 
      "inputs": []
    }, 
    {
      "op": "LayerNorm", 
      "name": "encoder_transformer_0_att_self_pre_norm", 
      "attrs": {
        "axis": "-1", 
        "eps": "1e-06", 
        "output_mean_var": "False"
      }, 
      "inputs": [[59, 0, 0], [60, 0, 0], [61, 0, 0]]
    }, 
    {
      "op": "null", 
      "name": "encoder_transformer_0_att_self_i2h_weight", 
      "inputs": []
    }, 
    {
      "op": "FullyConnected", 
      "name": "encoder_transformer_0_att_self_qkv_transform", 
      "attrs": {
        "flatten": "False", 
        "no_bias": "True", 
        "num_hidden": "1560"
      }, 
      "inputs": [[62, 0, 0], [63, 0, 0]]
    }, 
    {
      "op": "SliceChannel", 
      "name": "split0", 
      "attrs": {
        "axis": "2", 
        "num_outputs": "3"
      }, 
      "inputs": [[64, 0, 0]]
    }, 
    {
      "op": "_mul_scalar", 
      "name": "_mulscalar1", 
      "attrs": {"scalar": "0.12403473458920845"}, 
      "inputs": [[65, 0, 0]]
    }, 
    {
      "op": "Reshape", 
      "name": "reshape1", 
      "attrs": {"shape": "(0, -1, 8, 65)"}, 
      "inputs": [[66, 0, 0]]
    }, 
    {
      "op": "transpose", 
      "name": "transpose0", 
      "attrs": {"axes": "(0, 2, 1, 3)"}, 
      "inputs": [[67, 0, 0]]
    }, 
    {
      "op": "Reshape", 
      "name": "reshape2", 
      "attrs": {"shape": "(-3, -1, 65)"}, 
      "inputs": [[68, 0, 0]]
    }, 
    {
      "op": "Reshape", 
      "name": "reshape3", 
      "attrs": {"shape": "(0, -1, 8, 65)"}, 
      "inputs": [[65, 1, 0]]
    }, 
    {
      "op": "transpose", 
      "name": "transpose1", 
      "attrs": {"axes": "(0, 2, 1, 3)"}, 
      "inputs": [[70, 0, 0]]
    }, 
    {
      "op": "Reshape", 
      "name": "reshape4", 
      "attrs": {"shape": "(-3, -1, 65)"}, 
      "inputs": [[71, 0, 0]]
    }, 
    {
      "op": "batch_dot", 
      "name": "encoder_transformer_0_att_self_dot", 
      "attrs": {"transpose_b": "True"}, 
      "inputs": [[69, 0, 0], [72, 0, 0]]
    }, 
    {
      "op": "SliceChannel", 
      "name": "split0", 
      "attrs": {
        "axis": "2", 
        "num_outputs": "3", 
        "squeeze_axis": "True"
      }, 
      "inputs": [[47, 0, 0]]
    }, 
    {
      "op": "_not_equal_scalar", 
      "name": "_not_equal_scalar0", 
      "attrs": {"scalar": "0"}, 
      "inputs": [[74, 0, 0]]
    }, 
    {
      "op": "sum", 
      "name": "sum0", 
      "attrs": {"axis": "1"}, 
      "inputs": [[75, 0, 0]]
    }, 
    {
      "op": "Custom", 
      "name": "custom0", 
      "attrs": {
        "max_length": "100", 
        "op_type": "variable_length_bias"
      }, 
      "inputs": [[76, 0, 0]]
    }, 
    {
      "op": "expand_dims", 
      "name": "expand_dims0", 
      "attrs": {"axis": "1"}, 
      "inputs": [[77, 0, 0]]
    }, 
    {
      "op": "broadcast_to", 
      "name": "broadcast_to0", 
      "attrs": {"shape": "[0, 8, 0]"}, 
      "inputs": [[78, 0, 0]]
    }, 
    {
      "op": "Reshape", 
      "name": "reshape0", 
      "attrs": {"shape": "[-3, 0]"}, 
      "inputs": [[79, 0, 0]]
    }, 
    {
      "op": "BlockGrad", 
      "name": "encoder_transformer_biasbias", 
      "inputs": [[80, 0, 0]]
    }, 
    {
      "op": "expand_dims", 
      "name": "expand_dims1", 
      "attrs": {"axis": "1"}, 
      "inputs": [[81, 0, 0]]
    }, 
    {
      "op": "broadcast_add", 
      "name": "encoder_transformer_0_att_self_bias_add", 
      "inputs": [[73, 0, 0], [82, 0, 0]]
    }, 
    {
      "op": "softmax", 
      "name": "softmax0", 
      "attrs": {"axis": "-1"}, 
      "inputs": [[83, 0, 0]]
    }, 
    {
      "op": "Dropout", 
      "name": "dropout1", 
      "attrs": {"p": "0.1"}, 
      "inputs": [[84, 0, 0]]
    }, 
    {
      "op": "Reshape", 
      "name": "reshape5", 
      "attrs": {"shape": "(0, -1, 8, 65)"}, 
      "inputs": [[65, 2, 0]]
    }, 
    {
      "op": "transpose", 
      "name": "transpose2", 
      "attrs": {"axes": "(0, 2, 1, 3)"}, 
      "inputs": [[86, 0, 0]]
    }, 
    {
      "op": "Reshape", 
      "name": "reshape6", 
      "attrs": {"shape": "(-3, -1, 65)"}, 
      "inputs": [[87, 0, 0]]
    }, 
    {
      "op": "batch_dot", 
      "name": "encoder_transformer_0_att_self_contexts", 
      "inputs": [[85, 0, 0], [88, 0, 0]]
    }, 
    {
      "op": "Reshape", 
      "name": "reshape7", 
      "attrs": {"shape": "(-4, -1, 8, 0, 65)"}, 
      "inputs": [[89, 0, 0]]
    }, 
    {
      "op": "transpose", 
      "name": "transpose3", 
      "attrs": {"axes": "(0, 2, 1, 3)"}, 
      "inputs": [[90, 0, 0]]
    }, 
    {
      "op": "Reshape", 
      "name": "reshape8", 
      "attrs": {"shape": "(-1, 0, 520)"}, 
      "inputs": [[91, 0, 0]]
    }, 
    {
      "op": "null", 
      "name": "encoder_transformer_0_att_self_h2o_weight", 
      "inputs": []
    }, 
    {
      "op": "FullyConnected", 
      "name": "fullyconnected0", 
      "attrs": {
        "flatten": "False", 
        "no_bias": "True", 
        "num_hidden": "520"
      }, 
      "inputs": [[92, 0, 0], [93, 0, 0]]
    }, 
    {
      "op": "Dropout", 
      "name": "encoder_transformer_0_att_self_post_dropout", 
      "attrs": {"p": "0.1"}, 
      "inputs": [[94, 0, 0]]
    }, 
    {
      "op": "elemwise_add", 
      "name": "encoder_transformer_0_att_self_post_residual", 
      "inputs": [[95, 0, 0], [59, 0, 0]]
    }, 
    {
      "op": "null", 
      "name": "encoder_transformer_0_ff_pre_norm_gamma", 
      "attrs": {"__init__": "[\"constant\", {\"value\": 1.0}]"}, 
      "inputs": []
    }, 
    {
      "op": "null", 
      "name": "encoder_transformer_0_ff_pre_norm_beta", 
      "attrs": {"__init__": "[\"constant\", {\"value\": 0.0}]"}, 
      "inputs": []
    }, 
    {
      "op": "LayerNorm", 
      "name": "encoder_transformer_0_ff_pre_norm", 
      "attrs": {
        "axis": "-1", 
        "eps": "1e-06", 
        "output_mean_var": "False"
      }, 
      "inputs": [[96, 0, 0], [97, 0, 0], [98, 0, 0]]
    }, 
    {
      "op": "null", 
      "name": "encoder_transformer_0_ff_i2h_weight", 
      "inputs": []
    }, 
    {
      "op": "null", 
      "name": "encoder_transformer_0_ff_i2h_bias", 
      "inputs": []
    }, 
    {
      "op": "FullyConnected", 
      "name": "fullyconnected1", 
      "attrs": {
        "flatten": "False", 
        "num_hidden": "2048"
      }, 
      "inputs": [[99, 0, 0], [100, 0, 0], [101, 0, 0]]
    }, 
    {
      "op": "Activation", 
      "name": "activation0", 
      "attrs": {"act_type": "relu"}, 
      "inputs": [[102, 0, 0]]
    }, 
    {
      "op": "Dropout", 
      "name": "dropout2", 
      "attrs": {"p": "0.1"}, 
      "inputs": [[103, 0, 0]]
    }, 
    {
      "op": "null", 
      "name": "encoder_transformer_0_ff_h2o_weight", 
      "inputs": []
    }, 
    {
      "op": "null", 
      "name": "encoder_transformer_0_ff_h2o_bias", 
      "inputs": []
    }, 
    {
      "op": "FullyConnected", 
      "name": "fullyconnected2", 
      "attrs": {
        "flatten": "False", 
        "num_hidden": "520"
      }, 
      "inputs": [[104, 0, 0], [105, 0, 0], [106, 0, 0]]
    }, 
    {
      "op": "Dropout", 
      "name": "encoder_transformer_0_ff_post_dropout", 
      "attrs": {"p": "0.1"}, 
      "inputs": [[107, 0, 0]]
    }, 
    {
      "op": "elemwise_add", 
      "name": "encoder_transformer_0_ff_post_residual", 
      "inputs": [[108, 0, 0], [96, 0, 0]]
    }, 
    {
      "op": "null", 
      "name": "encoder_transformer_1_att_self_pre_norm_gamma", 
      "attrs": {"__init__": "[\"constant\", {\"value\": 1.0}]"}, 
      "inputs": []
    }, 
    {
      "op": "null", 
      "name": "encoder_transformer_1_att_self_pre_norm_beta", 
      "attrs": {"__init__": "[\"constant\", {\"value\": 0.0}]"}, 
      "inputs": []
    }, 
    {
      "op": "LayerNorm", 
      "name": "encoder_transformer_1_att_self_pre_norm", 
      "attrs": {
        "axis": "-1", 
        "eps": "1e-06", 
        "output_mean_var": "False"
      }, 
      "inputs": [[109, 0, 0], [110, 0, 0], [111, 0, 0]]
    }, 
    {
      "op": "null", 
      "name": "encoder_transformer_1_att_self_i2h_weight", 
      "inputs": []
    }, 
    {
      "op": "FullyConnected", 
      "name": "encoder_transformer_1_att_self_qkv_transform", 
      "attrs": {
        "flatten": "False", 
        "no_bias": "True", 
        "num_hidden": "1560"
      }, 
      "inputs": [[112, 0, 0], [113, 0, 0]]
    }, 
    {
      "op": "SliceChannel", 
      "name": "split1", 
      "attrs": {
        "axis": "2", 
        "num_outputs": "3"
      }, 
      "inputs": [[114, 0, 0]]
    }, 
    {
      "op": "_mul_scalar", 
      "name": "_mulscalar2", 
      "attrs": {"scalar": "0.12403473458920845"}, 
      "inputs": [[115, 0, 0]]
    }, 
    {
      "op": "Reshape", 
      "name": "reshape9", 
      "attrs": {"shape": "(0, -1, 8, 65)"}, 
      "inputs": [[116, 0, 0]]
    }, 
    {
      "op": "transpose", 
      "name": "transpose4", 
      "attrs": {"axes": "(0, 2, 1, 3)"}, 
      "inputs": [[117, 0, 0]]
    }, 
    {
      "op": "Reshape", 
      "name": "reshape10", 
      "attrs": {"shape": "(-3, -1, 65)"}, 
      "inputs": [[118, 0, 0]]
    }, 
    {
      "op": "Reshape", 
      "name": "reshape11", 
      "attrs": {"shape": "(0, -1, 8, 65)"}, 
      "inputs": [[115, 1, 0]]
    }, 
    {
      "op": "transpose", 
      "name": "transpose5", 
      "attrs": {"axes": "(0, 2, 1, 3)"}, 
      "inputs": [[120, 0, 0]]
    }, 
    {
      "op": "Reshape", 
      "name": "reshape12", 
      "attrs": {"shape": "(-3, -1, 65)"}, 
      "inputs": [[121, 0, 0]]
    }, 
    {
      "op": "batch_dot", 
      "name": "encoder_transformer_1_att_self_dot", 
      "attrs": {"transpose_b": "True"}, 
      "inputs": [[119, 0, 0], [122, 0, 0]]
    }, 
    {
      "op": "broadcast_add", 
      "name": "encoder_transformer_1_att_self_bias_add", 
      "inputs": [[123, 0, 0], [82, 0, 0]]
    }, 
    {
      "op": "softmax", 
      "name": "softmax1", 
      "attrs": {"axis": "-1"}, 
      "inputs": [[124, 0, 0]]
    }, 
    {
      "op": "Dropout", 
      "name": "dropout3", 
      "attrs": {"p": "0.1"}, 
      "inputs": [[125, 0, 0]]
    }, 
    {
      "op": "Reshape", 
      "name": "reshape13", 
      "attrs": {"shape": "(0, -1, 8, 65)"}, 
      "inputs": [[115, 2, 0]]
    }, 
    {
      "op": "transpose", 
      "name": "transpose6", 
      "attrs": {"axes": "(0, 2, 1, 3)"}, 
      "inputs": [[127, 0, 0]]
    }, 
    {
      "op": "Reshape", 
      "name": "reshape14", 
      "attrs": {"shape": "(-3, -1, 65)"}, 
      "inputs": [[128, 0, 0]]
    }, 
    {
      "op": "batch_dot", 
      "name": "encoder_transformer_1_att_self_contexts", 
      "inputs": [[126, 0, 0], [129, 0, 0]]
    }, 
    {
      "op": "Reshape", 
      "name": "reshape15", 
      "attrs": {"shape": "(-4, -1, 8, 0, 65)"}, 
      "inputs": [[130, 0, 0]]
    }, 
    {
      "op": "transpose", 
      "name": "transpose7", 
      "attrs": {"axes": "(0, 2, 1, 3)"}, 
      "inputs": [[131, 0, 0]]
    }, 
    {
      "op": "Reshape", 
      "name": "reshape16", 
      "attrs": {"shape": "(-1, 0, 520)"}, 
      "inputs": [[132, 0, 0]]
    }, 
    {
      "op": "null", 
      "name": "encoder_transformer_1_att_self_h2o_weight", 
      "inputs": []
    }, 
    {
      "op": "FullyConnected", 
      "name": "fullyconnected3", 
      "attrs": {
        "flatten": "False", 
        "no_bias": "True", 
        "num_hidden": "520"
      }, 
      "inputs": [[133, 0, 0], [134, 0, 0]]
    }, 
    {
      "op": "Dropout", 
      "name": "encoder_transformer_1_att_self_post_dropout", 
      "attrs": {"p": "0.1"}, 
      "inputs": [[135, 0, 0]]
    }, 
    {
      "op": "elemwise_add", 
      "name": "encoder_transformer_1_att_self_post_residual", 
      "inputs": [[136, 0, 0], [109, 0, 0]]
    }, 
    {
      "op": "null", 
      "name": "encoder_transformer_1_ff_pre_norm_gamma", 
      "attrs": {"__init__": "[\"constant\", {\"value\": 1.0}]"}, 
      "inputs": []
    }, 
    {
      "op": "null", 
      "name": "encoder_transformer_1_ff_pre_norm_beta", 
      "attrs": {"__init__": "[\"constant\", {\"value\": 0.0}]"}, 
      "inputs": []
    }, 
    {
      "op": "LayerNorm", 
      "name": "encoder_transformer_1_ff_pre_norm", 
      "attrs": {
        "axis": "-1", 
        "eps": "1e-06", 
        "output_mean_var": "False"
      }, 
      "inputs": [[137, 0, 0], [138, 0, 0], [139, 0, 0]]
    }, 
    {
      "op": "null", 
      "name": "encoder_transformer_1_ff_i2h_weight", 
      "inputs": []
    }, 
    {
      "op": "null", 
      "name": "encoder_transformer_1_ff_i2h_bias", 
      "inputs": []
    }, 
    {
      "op": "FullyConnected", 
      "name": "fullyconnected4", 
      "attrs": {
        "flatten": "False", 
        "num_hidden": "2048"
      }, 
      "inputs": [[140, 0, 0], [141, 0, 0], [142, 0, 0]]
    }, 
    {
      "op": "Activation", 
      "name": "activation1", 
      "attrs": {"act_type": "relu"}, 
      "inputs": [[143, 0, 0]]
    }, 
    {
      "op": "Dropout", 
      "name": "dropout4", 
      "attrs": {"p": "0.1"}, 
      "inputs": [[144, 0, 0]]
    }, 
    {
      "op": "null", 
      "name": "encoder_transformer_1_ff_h2o_weight", 
      "inputs": []
    }, 
    {
      "op": "null", 
      "name": "encoder_transformer_1_ff_h2o_bias", 
      "inputs": []
    }, 
    {
      "op": "FullyConnected", 
      "name": "fullyconnected5", 
      "attrs": {
        "flatten": "False", 
        "num_hidden": "520"
      }, 
      "inputs": [[145, 0, 0], [146, 0, 0], [147, 0, 0]]
    }, 
    {
      "op": "Dropout", 
      "name": "encoder_transformer_1_ff_post_dropout", 
      "attrs": {"p": "0.1"}, 
      "inputs": [[148, 0, 0]]
    }, 
    {
      "op": "elemwise_add", 
      "name": "encoder_transformer_1_ff_post_residual", 
      "inputs": [[149, 0, 0], [137, 0, 0]]
    }, 
    {
      "op": "null", 
      "name": "encoder_transformer_2_att_self_pre_norm_gamma", 
      "attrs": {"__init__": "[\"constant\", {\"value\": 1.0}]"}, 
      "inputs": []
    }, 
    {
      "op": "null", 
      "name": "encoder_transformer_2_att_self_pre_norm_beta", 
      "attrs": {"__init__": "[\"constant\", {\"value\": 0.0}]"}, 
      "inputs": []
    }, 
    {
      "op": "LayerNorm", 
      "name": "encoder_transformer_2_att_self_pre_norm", 
      "attrs": {
        "axis": "-1", 
        "eps": "1e-06", 
        "output_mean_var": "False"
      }, 
      "inputs": [[150, 0, 0], [151, 0, 0], [152, 0, 0]]
    }, 
    {
      "op": "null", 
      "name": "encoder_transformer_2_att_self_i2h_weight", 
      "inputs": []
    }, 
    {
      "op": "FullyConnected", 
      "name": "encoder_transformer_2_att_self_qkv_transform", 
      "attrs": {
        "flatten": "False", 
        "no_bias": "True", 
        "num_hidden": "1560"
      }, 
      "inputs": [[153, 0, 0], [154, 0, 0]]
    }, 
    {
      "op": "SliceChannel", 
      "name": "split2", 
      "attrs": {
        "axis": "2", 
        "num_outputs": "3"
      }, 
      "inputs": [[155, 0, 0]]
    }, 
    {
      "op": "_mul_scalar", 
      "name": "_mulscalar3", 
      "attrs": {"scalar": "0.12403473458920845"}, 
      "inputs": [[156, 0, 0]]
    }, 
    {
      "op": "Reshape", 
      "name": "reshape17", 
      "attrs": {"shape": "(0, -1, 8, 65)"}, 
      "inputs": [[157, 0, 0]]
    }, 
    {
      "op": "transpose", 
      "name": "transpose8", 
      "attrs": {"axes": "(0, 2, 1, 3)"}, 
      "inputs": [[158, 0, 0]]
    }, 
    {
      "op": "Reshape", 
      "name": "reshape18", 
      "attrs": {"shape": "(-3, -1, 65)"}, 
      "inputs": [[159, 0, 0]]
    }, 
    {
      "op": "Reshape", 
      "name": "reshape19", 
      "attrs": {"shape": "(0, -1, 8, 65)"}, 
      "inputs": [[156, 1, 0]]
    }, 
    {
      "op": "transpose", 
      "name": "transpose9", 
      "attrs": {"axes": "(0, 2, 1, 3)"}, 
      "inputs": [[161, 0, 0]]
    }, 
    {
      "op": "Reshape", 
      "name": "reshape20", 
      "attrs": {"shape": "(-3, -1, 65)"}, 
      "inputs": [[162, 0, 0]]
    }, 
    {
      "op": "batch_dot", 
      "name": "encoder_transformer_2_att_self_dot", 
      "attrs": {"transpose_b": "True"}, 
      "inputs": [[160, 0, 0], [163, 0, 0]]
    }, 
    {
      "op": "broadcast_add", 
      "name": "encoder_transformer_2_att_self_bias_add", 
      "inputs": [[164, 0, 0], [82, 0, 0]]
    }, 
    {
      "op": "softmax", 
      "name": "softmax2", 
      "attrs": {"axis": "-1"}, 
      "inputs": [[165, 0, 0]]
    }, 
    {
      "op": "Dropout", 
      "name": "dropout5", 
      "attrs": {"p": "0.1"}, 
      "inputs": [[166, 0, 0]]
    }, 
    {
      "op": "Reshape", 
      "name": "reshape21", 
      "attrs": {"shape": "(0, -1, 8, 65)"}, 
      "inputs": [[156, 2, 0]]
    }, 
    {
      "op": "transpose", 
      "name": "transpose10", 
      "attrs": {"axes": "(0, 2, 1, 3)"}, 
      "inputs": [[168, 0, 0]]
    }, 
    {
      "op": "Reshape", 
      "name": "reshape22", 
      "attrs": {"shape": "(-3, -1, 65)"}, 
      "inputs": [[169, 0, 0]]
    }, 
    {
      "op": "batch_dot", 
      "name": "encoder_transformer_2_att_self_contexts", 
      "inputs": [[167, 0, 0], [170, 0, 0]]
    }, 
    {
      "op": "Reshape", 
      "name": "reshape23", 
      "attrs": {"shape": "(-4, -1, 8, 0, 65)"}, 
      "inputs": [[171, 0, 0]]
    }, 
    {
      "op": "transpose", 
      "name": "transpose11", 
      "attrs": {"axes": "(0, 2, 1, 3)"}, 
      "inputs": [[172, 0, 0]]
    }, 
    {
      "op": "Reshape", 
      "name": "reshape24", 
      "attrs": {"shape": "(-1, 0, 520)"}, 
      "inputs": [[173, 0, 0]]
    }, 
    {
      "op": "null", 
      "name": "encoder_transformer_2_att_self_h2o_weight", 
      "inputs": []
    }, 
    {
      "op": "FullyConnected", 
      "name": "fullyconnected6", 
      "attrs": {
        "flatten": "False", 
        "no_bias": "True", 
        "num_hidden": "520"
      }, 
      "inputs": [[174, 0, 0], [175, 0, 0]]
    }, 
    {
      "op": "Dropout", 
      "name": "encoder_transformer_2_att_self_post_dropout", 
      "attrs": {"p": "0.1"}, 
      "inputs": [[176, 0, 0]]
    }, 
    {
      "op": "elemwise_add", 
      "name": "encoder_transformer_2_att_self_post_residual", 
      "inputs": [[177, 0, 0], [150, 0, 0]]
    }, 
    {
      "op": "null", 
      "name": "encoder_transformer_2_ff_pre_norm_gamma", 
      "attrs": {"__init__": "[\"constant\", {\"value\": 1.0}]"}, 
      "inputs": []
    }, 
    {
      "op": "null", 
      "name": "encoder_transformer_2_ff_pre_norm_beta", 
      "attrs": {"__init__": "[\"constant\", {\"value\": 0.0}]"}, 
      "inputs": []
    }, 
    {
      "op": "LayerNorm", 
      "name": "encoder_transformer_2_ff_pre_norm", 
      "attrs": {
        "axis": "-1", 
        "eps": "1e-06", 
        "output_mean_var": "False"
      }, 
      "inputs": [[178, 0, 0], [179, 0, 0], [180, 0, 0]]
    }, 
    {
      "op": "null", 
      "name": "encoder_transformer_2_ff_i2h_weight", 
      "inputs": []
    }, 
    {
      "op": "null", 
      "name": "encoder_transformer_2_ff_i2h_bias", 
      "inputs": []
    }, 
    {
      "op": "FullyConnected", 
      "name": "fullyconnected7", 
      "attrs": {
        "flatten": "False", 
        "num_hidden": "2048"
      }, 
      "inputs": [[181, 0, 0], [182, 0, 0], [183, 0, 0]]
    }, 
    {
      "op": "Activation", 
      "name": "activation2", 
      "attrs": {"act_type": "relu"}, 
      "inputs": [[184, 0, 0]]
    }, 
    {
      "op": "Dropout", 
      "name": "dropout6", 
      "attrs": {"p": "0.1"}, 
      "inputs": [[185, 0, 0]]
    }, 
    {
      "op": "null", 
      "name": "encoder_transformer_2_ff_h2o_weight", 
      "inputs": []
    }, 
    {
      "op": "null", 
      "name": "encoder_transformer_2_ff_h2o_bias", 
      "inputs": []
    }, 
    {
      "op": "FullyConnected", 
      "name": "fullyconnected8", 
      "attrs": {
        "flatten": "False", 
        "num_hidden": "520"
      }, 
      "inputs": [[186, 0, 0], [187, 0, 0], [188, 0, 0]]
    }, 
    {
      "op": "Dropout", 
      "name": "encoder_transformer_2_ff_post_dropout", 
      "attrs": {"p": "0.1"}, 
      "inputs": [[189, 0, 0]]
    }, 
    {
      "op": "elemwise_add", 
      "name": "encoder_transformer_2_ff_post_residual", 
      "inputs": [[190, 0, 0], [178, 0, 0]]
    }, 
    {
      "op": "null", 
      "name": "encoder_transformer_3_att_self_pre_norm_gamma", 
      "attrs": {"__init__": "[\"constant\", {\"value\": 1.0}]"}, 
      "inputs": []
    }, 
    {
      "op": "null", 
      "name": "encoder_transformer_3_att_self_pre_norm_beta", 
      "attrs": {"__init__": "[\"constant\", {\"value\": 0.0}]"}, 
      "inputs": []
    }, 
    {
      "op": "LayerNorm", 
      "name": "encoder_transformer_3_att_self_pre_norm", 
      "attrs": {
        "axis": "-1", 
        "eps": "1e-06", 
        "output_mean_var": "False"
      }, 
      "inputs": [[191, 0, 0], [192, 0, 0], [193, 0, 0]]
    }, 
    {
      "op": "null", 
      "name": "encoder_transformer_3_att_self_i2h_weight", 
      "inputs": []
    }, 
    {
      "op": "FullyConnected", 
      "name": "encoder_transformer_3_att_self_qkv_transform", 
      "attrs": {
        "flatten": "False", 
        "no_bias": "True", 
        "num_hidden": "1560"
      }, 
      "inputs": [[194, 0, 0], [195, 0, 0]]
    }, 
    {
      "op": "SliceChannel", 
      "name": "split3", 
      "attrs": {
        "axis": "2", 
        "num_outputs": "3"
      }, 
      "inputs": [[196, 0, 0]]
    }, 
    {
      "op": "_mul_scalar", 
      "name": "_mulscalar4", 
      "attrs": {"scalar": "0.12403473458920845"}, 
      "inputs": [[197, 0, 0]]
    }, 
    {
      "op": "Reshape", 
      "name": "reshape25", 
      "attrs": {"shape": "(0, -1, 8, 65)"}, 
      "inputs": [[198, 0, 0]]
    }, 
    {
      "op": "transpose", 
      "name": "transpose12", 
      "attrs": {"axes": "(0, 2, 1, 3)"}, 
      "inputs": [[199, 0, 0]]
    }, 
    {
      "op": "Reshape", 
      "name": "reshape26", 
      "attrs": {"shape": "(-3, -1, 65)"}, 
      "inputs": [[200, 0, 0]]
    }, 
    {
      "op": "Reshape", 
      "name": "reshape27", 
      "attrs": {"shape": "(0, -1, 8, 65)"}, 
      "inputs": [[197, 1, 0]]
    }, 
    {
      "op": "transpose", 
      "name": "transpose13", 
      "attrs": {"axes": "(0, 2, 1, 3)"}, 
      "inputs": [[202, 0, 0]]
    }, 
    {
      "op": "Reshape", 
      "name": "reshape28", 
      "attrs": {"shape": "(-3, -1, 65)"}, 
      "inputs": [[203, 0, 0]]
    }, 
    {
      "op": "batch_dot", 
      "name": "encoder_transformer_3_att_self_dot", 
      "attrs": {"transpose_b": "True"}, 
      "inputs": [[201, 0, 0], [204, 0, 0]]
    }, 
    {
      "op": "broadcast_add", 
      "name": "encoder_transformer_3_att_self_bias_add", 
      "inputs": [[205, 0, 0], [82, 0, 0]]
    }, 
    {
      "op": "softmax", 
      "name": "softmax3", 
      "attrs": {"axis": "-1"}, 
      "inputs": [[206, 0, 0]]
    }, 
    {
      "op": "Dropout", 
      "name": "dropout7", 
      "attrs": {"p": "0.1"}, 
      "inputs": [[207, 0, 0]]
    }, 
    {
      "op": "Reshape", 
      "name": "reshape29", 
      "attrs": {"shape": "(0, -1, 8, 65)"}, 
      "inputs": [[197, 2, 0]]
    }, 
    {
      "op": "transpose", 
      "name": "transpose14", 
      "attrs": {"axes": "(0, 2, 1, 3)"}, 
      "inputs": [[209, 0, 0]]
    }, 
    {
      "op": "Reshape", 
      "name": "reshape30", 
      "attrs": {"shape": "(-3, -1, 65)"}, 
      "inputs": [[210, 0, 0]]
    }, 
    {
      "op": "batch_dot", 
      "name": "encoder_transformer_3_att_self_contexts", 
      "inputs": [[208, 0, 0], [211, 0, 0]]
    }, 
    {
      "op": "Reshape", 
      "name": "reshape31", 
      "attrs": {"shape": "(-4, -1, 8, 0, 65)"}, 
      "inputs": [[212, 0, 0]]
    }, 
    {
      "op": "transpose", 
      "name": "transpose15", 
      "attrs": {"axes": "(0, 2, 1, 3)"}, 
      "inputs": [[213, 0, 0]]
    }, 
    {
      "op": "Reshape", 
      "name": "reshape32", 
      "attrs": {"shape": "(-1, 0, 520)"}, 
      "inputs": [[214, 0, 0]]
    }, 
    {
      "op": "null", 
      "name": "encoder_transformer_3_att_self_h2o_weight", 
      "inputs": []
    }, 
    {
      "op": "FullyConnected", 
      "name": "fullyconnected9", 
      "attrs": {
        "flatten": "False", 
        "no_bias": "True", 
        "num_hidden": "520"
      }, 
      "inputs": [[215, 0, 0], [216, 0, 0]]
    }, 
    {
      "op": "Dropout", 
      "name": "encoder_transformer_3_att_self_post_dropout", 
      "attrs": {"p": "0.1"}, 
      "inputs": [[217, 0, 0]]
    }, 
    {
      "op": "elemwise_add", 
      "name": "encoder_transformer_3_att_self_post_residual", 
      "inputs": [[218, 0, 0], [191, 0, 0]]
    }, 
    {
      "op": "null", 
      "name": "encoder_transformer_3_ff_pre_norm_gamma", 
      "attrs": {"__init__": "[\"constant\", {\"value\": 1.0}]"}, 
      "inputs": []
    }, 
    {
      "op": "null", 
      "name": "encoder_transformer_3_ff_pre_norm_beta", 
      "attrs": {"__init__": "[\"constant\", {\"value\": 0.0}]"}, 
      "inputs": []
    }, 
    {
      "op": "LayerNorm", 
      "name": "encoder_transformer_3_ff_pre_norm", 
      "attrs": {
        "axis": "-1", 
        "eps": "1e-06", 
        "output_mean_var": "False"
      }, 
      "inputs": [[219, 0, 0], [220, 0, 0], [221, 0, 0]]
    }, 
    {
      "op": "null", 
      "name": "encoder_transformer_3_ff_i2h_weight", 
      "inputs": []
    }, 
    {
      "op": "null", 
      "name": "encoder_transformer_3_ff_i2h_bias", 
      "inputs": []
    }, 
    {
      "op": "FullyConnected", 
      "name": "fullyconnected10", 
      "attrs": {
        "flatten": "False", 
        "num_hidden": "2048"
      }, 
      "inputs": [[222, 0, 0], [223, 0, 0], [224, 0, 0]]
    }, 
    {
      "op": "Activation", 
      "name": "activation3", 
      "attrs": {"act_type": "relu"}, 
      "inputs": [[225, 0, 0]]
    }, 
    {
      "op": "Dropout", 
      "name": "dropout8", 
      "attrs": {"p": "0.1"}, 
      "inputs": [[226, 0, 0]]
    }, 
    {
      "op": "null", 
      "name": "encoder_transformer_3_ff_h2o_weight", 
      "inputs": []
    }, 
    {
      "op": "null", 
      "name": "encoder_transformer_3_ff_h2o_bias", 
      "inputs": []
    }, 
    {
      "op": "FullyConnected", 
      "name": "fullyconnected11", 
      "attrs": {
        "flatten": "False", 
        "num_hidden": "520"
      }, 
      "inputs": [[227, 0, 0], [228, 0, 0], [229, 0, 0]]
    }, 
    {
      "op": "Dropout", 
      "name": "encoder_transformer_3_ff_post_dropout", 
      "attrs": {"p": "0.1"}, 
      "inputs": [[230, 0, 0]]
    }, 
    {
      "op": "elemwise_add", 
      "name": "encoder_transformer_3_ff_post_residual", 
      "inputs": [[231, 0, 0], [219, 0, 0]]
    }, 
    {
      "op": "null", 
      "name": "encoder_transformer_4_att_self_pre_norm_gamma", 
      "attrs": {"__init__": "[\"constant\", {\"value\": 1.0}]"}, 
      "inputs": []
    }, 
    {
      "op": "null", 
      "name": "encoder_transformer_4_att_self_pre_norm_beta", 
      "attrs": {"__init__": "[\"constant\", {\"value\": 0.0}]"}, 
      "inputs": []
    }, 
    {
      "op": "LayerNorm", 
      "name": "encoder_transformer_4_att_self_pre_norm", 
      "attrs": {
        "axis": "-1", 
        "eps": "1e-06", 
        "output_mean_var": "False"
      }, 
      "inputs": [[232, 0, 0], [233, 0, 0], [234, 0, 0]]
    }, 
    {
      "op": "null", 
      "name": "encoder_transformer_4_att_self_i2h_weight", 
      "inputs": []
    }, 
    {
      "op": "FullyConnected", 
      "name": "encoder_transformer_4_att_self_qkv_transform", 
      "attrs": {
        "flatten": "False", 
        "no_bias": "True", 
        "num_hidden": "1560"
      }, 
      "inputs": [[235, 0, 0], [236, 0, 0]]
    }, 
    {
      "op": "SliceChannel", 
      "name": "split4", 
      "attrs": {
        "axis": "2", 
        "num_outputs": "3"
      }, 
      "inputs": [[237, 0, 0]]
    }, 
    {
      "op": "_mul_scalar", 
      "name": "_mulscalar5", 
      "attrs": {"scalar": "0.12403473458920845"}, 
      "inputs": [[238, 0, 0]]
    }, 
    {
      "op": "Reshape", 
      "name": "reshape33", 
      "attrs": {"shape": "(0, -1, 8, 65)"}, 
      "inputs": [[239, 0, 0]]
    }, 
    {
      "op": "transpose", 
      "name": "transpose16", 
      "attrs": {"axes": "(0, 2, 1, 3)"}, 
      "inputs": [[240, 0, 0]]
    }, 
    {
      "op": "Reshape", 
      "name": "reshape34", 
      "attrs": {"shape": "(-3, -1, 65)"}, 
      "inputs": [[241, 0, 0]]
    }, 
    {
      "op": "Reshape", 
      "name": "reshape35", 
      "attrs": {"shape": "(0, -1, 8, 65)"}, 
      "inputs": [[238, 1, 0]]
    }, 
    {
      "op": "transpose", 
      "name": "transpose17", 
      "attrs": {"axes": "(0, 2, 1, 3)"}, 
      "inputs": [[243, 0, 0]]
    }, 
    {
      "op": "Reshape", 
      "name": "reshape36", 
      "attrs": {"shape": "(-3, -1, 65)"}, 
      "inputs": [[244, 0, 0]]
    }, 
    {
      "op": "batch_dot", 
      "name": "encoder_transformer_4_att_self_dot", 
      "attrs": {"transpose_b": "True"}, 
      "inputs": [[242, 0, 0], [245, 0, 0]]
    }, 
    {
      "op": "broadcast_add", 
      "name": "encoder_transformer_4_att_self_bias_add", 
      "inputs": [[246, 0, 0], [82, 0, 0]]
    }, 
    {
      "op": "softmax", 
      "name": "softmax4", 
      "attrs": {"axis": "-1"}, 
      "inputs": [[247, 0, 0]]
    }, 
    {
      "op": "Dropout", 
      "name": "dropout9", 
      "attrs": {"p": "0.1"}, 
      "inputs": [[248, 0, 0]]
    }, 
    {
      "op": "Reshape", 
      "name": "reshape37", 
      "attrs": {"shape": "(0, -1, 8, 65)"}, 
      "inputs": [[238, 2, 0]]
    }, 
    {
      "op": "transpose", 
      "name": "transpose18", 
      "attrs": {"axes": "(0, 2, 1, 3)"}, 
      "inputs": [[250, 0, 0]]
    }, 
    {
      "op": "Reshape", 
      "name": "reshape38", 
      "attrs": {"shape": "(-3, -1, 65)"}, 
      "inputs": [[251, 0, 0]]
    }, 
    {
      "op": "batch_dot", 
      "name": "encoder_transformer_4_att_self_contexts", 
      "inputs": [[249, 0, 0], [252, 0, 0]]
    }, 
    {
      "op": "Reshape", 
      "name": "reshape39", 
      "attrs": {"shape": "(-4, -1, 8, 0, 65)"}, 
      "inputs": [[253, 0, 0]]
    }, 
    {
      "op": "transpose", 
      "name": "transpose19", 
      "attrs": {"axes": "(0, 2, 1, 3)"}, 
      "inputs": [[254, 0, 0]]
    }, 
    {
      "op": "Reshape", 
      "name": "reshape40", 
      "attrs": {"shape": "(-1, 0, 520)"}, 
      "inputs": [[255, 0, 0]]
    }, 
    {
      "op": "null", 
      "name": "encoder_transformer_4_att_self_h2o_weight", 
      "inputs": []
    }, 
    {
      "op": "FullyConnected", 
      "name": "fullyconnected12", 
      "attrs": {
        "flatten": "False", 
        "no_bias": "True", 
        "num_hidden": "520"
      }, 
      "inputs": [[256, 0, 0], [257, 0, 0]]
    }, 
    {
      "op": "Dropout", 
      "name": "encoder_transformer_4_att_self_post_dropout", 
      "attrs": {"p": "0.1"}, 
      "inputs": [[258, 0, 0]]
    }, 
    {
      "op": "elemwise_add", 
      "name": "encoder_transformer_4_att_self_post_residual", 
      "inputs": [[259, 0, 0], [232, 0, 0]]
    }, 
    {
      "op": "null", 
      "name": "encoder_transformer_4_ff_pre_norm_gamma", 
      "attrs": {"__init__": "[\"constant\", {\"value\": 1.0}]"}, 
      "inputs": []
    }, 
    {
      "op": "null", 
      "name": "encoder_transformer_4_ff_pre_norm_beta", 
      "attrs": {"__init__": "[\"constant\", {\"value\": 0.0}]"}, 
      "inputs": []
    }, 
    {
      "op": "LayerNorm", 
      "name": "encoder_transformer_4_ff_pre_norm", 
      "attrs": {
        "axis": "-1", 
        "eps": "1e-06", 
        "output_mean_var": "False"
      }, 
      "inputs": [[260, 0, 0], [261, 0, 0], [262, 0, 0]]
    }, 
    {
      "op": "null", 
      "name": "encoder_transformer_4_ff_i2h_weight", 
      "inputs": []
    }, 
    {
      "op": "null", 
      "name": "encoder_transformer_4_ff_i2h_bias", 
      "inputs": []
    }, 
    {
      "op": "FullyConnected", 
      "name": "fullyconnected13", 
      "attrs": {
        "flatten": "False", 
        "num_hidden": "2048"
      }, 
      "inputs": [[263, 0, 0], [264, 0, 0], [265, 0, 0]]
    }, 
    {
      "op": "Activation", 
      "name": "activation4", 
      "attrs": {"act_type": "relu"}, 
      "inputs": [[266, 0, 0]]
    }, 
    {
      "op": "Dropout", 
      "name": "dropout10", 
      "attrs": {"p": "0.1"}, 
      "inputs": [[267, 0, 0]]
    }, 
    {
      "op": "null", 
      "name": "encoder_transformer_4_ff_h2o_weight", 
      "inputs": []
    }, 
    {
      "op": "null", 
      "name": "encoder_transformer_4_ff_h2o_bias", 
      "inputs": []
    }, 
    {
      "op": "FullyConnected", 
      "name": "fullyconnected14", 
      "attrs": {
        "flatten": "False", 
        "num_hidden": "520"
      }, 
      "inputs": [[268, 0, 0], [269, 0, 0], [270, 0, 0]]
    }, 
    {
      "op": "Dropout", 
      "name": "encoder_transformer_4_ff_post_dropout", 
      "attrs": {"p": "0.1"}, 
      "inputs": [[271, 0, 0]]
    }, 
    {
      "op": "elemwise_add", 
      "name": "encoder_transformer_4_ff_post_residual", 
      "inputs": [[272, 0, 0], [260, 0, 0]]
    }, 
    {
      "op": "null", 
      "name": "encoder_transformer_5_att_self_pre_norm_gamma", 
      "attrs": {"__init__": "[\"constant\", {\"value\": 1.0}]"}, 
      "inputs": []
    }, 
    {
      "op": "null", 
      "name": "encoder_transformer_5_att_self_pre_norm_beta", 
      "attrs": {"__init__": "[\"constant\", {\"value\": 0.0}]"}, 
      "inputs": []
    }, 
    {
      "op": "LayerNorm", 
      "name": "encoder_transformer_5_att_self_pre_norm", 
      "attrs": {
        "axis": "-1", 
        "eps": "1e-06", 
        "output_mean_var": "False"
      }, 
      "inputs": [[273, 0, 0], [274, 0, 0], [275, 0, 0]]
    }, 
    {
      "op": "null", 
      "name": "encoder_transformer_5_att_self_i2h_weight", 
      "inputs": []
    }, 
    {
      "op": "FullyConnected", 
      "name": "encoder_transformer_5_att_self_qkv_transform", 
      "attrs": {
        "flatten": "False", 
        "no_bias": "True", 
        "num_hidden": "1560"
      }, 
      "inputs": [[276, 0, 0], [277, 0, 0]]
    }, 
    {
      "op": "SliceChannel", 
      "name": "split5", 
      "attrs": {
        "axis": "2", 
        "num_outputs": "3"
      }, 
      "inputs": [[278, 0, 0]]
    }, 
    {
      "op": "_mul_scalar", 
      "name": "_mulscalar6", 
      "attrs": {"scalar": "0.12403473458920845"}, 
      "inputs": [[279, 0, 0]]
    }, 
    {
      "op": "Reshape", 
      "name": "reshape41", 
      "attrs": {"shape": "(0, -1, 8, 65)"}, 
      "inputs": [[280, 0, 0]]
    }, 
    {
      "op": "transpose", 
      "name": "transpose20", 
      "attrs": {"axes": "(0, 2, 1, 3)"}, 
      "inputs": [[281, 0, 0]]
    }, 
    {
      "op": "Reshape", 
      "name": "reshape42", 
      "attrs": {"shape": "(-3, -1, 65)"}, 
      "inputs": [[282, 0, 0]]
    }, 
    {
      "op": "Reshape", 
      "name": "reshape43", 
      "attrs": {"shape": "(0, -1, 8, 65)"}, 
      "inputs": [[279, 1, 0]]
    }, 
    {
      "op": "transpose", 
      "name": "transpose21", 
      "attrs": {"axes": "(0, 2, 1, 3)"}, 
      "inputs": [[284, 0, 0]]
    }, 
    {
      "op": "Reshape", 
      "name": "reshape44", 
      "attrs": {"shape": "(-3, -1, 65)"}, 
      "inputs": [[285, 0, 0]]
    }, 
    {
      "op": "batch_dot", 
      "name": "encoder_transformer_5_att_self_dot", 
      "attrs": {"transpose_b": "True"}, 
      "inputs": [[283, 0, 0], [286, 0, 0]]
    }, 
    {
      "op": "broadcast_add", 
      "name": "encoder_transformer_5_att_self_bias_add", 
      "inputs": [[287, 0, 0], [82, 0, 0]]
    }, 
    {
      "op": "softmax", 
      "name": "softmax5", 
      "attrs": {"axis": "-1"}, 
      "inputs": [[288, 0, 0]]
    }, 
    {
      "op": "Dropout", 
      "name": "dropout11", 
      "attrs": {"p": "0.1"}, 
      "inputs": [[289, 0, 0]]
    }, 
    {
      "op": "Reshape", 
      "name": "reshape45", 
      "attrs": {"shape": "(0, -1, 8, 65)"}, 
      "inputs": [[279, 2, 0]]
    }, 
    {
      "op": "transpose", 
      "name": "transpose22", 
      "attrs": {"axes": "(0, 2, 1, 3)"}, 
      "inputs": [[291, 0, 0]]
    }, 
    {
      "op": "Reshape", 
      "name": "reshape46", 
      "attrs": {"shape": "(-3, -1, 65)"}, 
      "inputs": [[292, 0, 0]]
    }, 
    {
      "op": "batch_dot", 
      "name": "encoder_transformer_5_att_self_contexts", 
      "inputs": [[290, 0, 0], [293, 0, 0]]
    }, 
    {
      "op": "Reshape", 
      "name": "reshape47", 
      "attrs": {"shape": "(-4, -1, 8, 0, 65)"}, 
      "inputs": [[294, 0, 0]]
    }, 
    {
      "op": "transpose", 
      "name": "transpose23", 
      "attrs": {"axes": "(0, 2, 1, 3)"}, 
      "inputs": [[295, 0, 0]]
    }, 
    {
      "op": "Reshape", 
      "name": "reshape48", 
      "attrs": {"shape": "(-1, 0, 520)"}, 
      "inputs": [[296, 0, 0]]
    }, 
    {
      "op": "null", 
      "name": "encoder_transformer_5_att_self_h2o_weight", 
      "inputs": []
    }, 
    {
      "op": "FullyConnected", 
      "name": "fullyconnected15", 
      "attrs": {
        "flatten": "False", 
        "no_bias": "True", 
        "num_hidden": "520"
      }, 
      "inputs": [[297, 0, 0], [298, 0, 0]]
    }, 
    {
      "op": "Dropout", 
      "name": "encoder_transformer_5_att_self_post_dropout", 
      "attrs": {"p": "0.1"}, 
      "inputs": [[299, 0, 0]]
    }, 
    {
      "op": "elemwise_add", 
      "name": "encoder_transformer_5_att_self_post_residual", 
      "inputs": [[300, 0, 0], [273, 0, 0]]
    }, 
    {
      "op": "null", 
      "name": "encoder_transformer_5_ff_pre_norm_gamma", 
      "attrs": {"__init__": "[\"constant\", {\"value\": 1.0}]"}, 
      "inputs": []
    }, 
    {
      "op": "null", 
      "name": "encoder_transformer_5_ff_pre_norm_beta", 
      "attrs": {"__init__": "[\"constant\", {\"value\": 0.0}]"}, 
      "inputs": []
    }, 
    {
      "op": "LayerNorm", 
      "name": "encoder_transformer_5_ff_pre_norm", 
      "attrs": {
        "axis": "-1", 
        "eps": "1e-06", 
        "output_mean_var": "False"
      }, 
      "inputs": [[301, 0, 0], [302, 0, 0], [303, 0, 0]]
    }, 
    {
      "op": "null", 
      "name": "encoder_transformer_5_ff_i2h_weight", 
      "inputs": []
    }, 
    {
      "op": "null", 
      "name": "encoder_transformer_5_ff_i2h_bias", 
      "inputs": []
    }, 
    {
      "op": "FullyConnected", 
      "name": "fullyconnected16", 
      "attrs": {
        "flatten": "False", 
        "num_hidden": "2048"
      }, 
      "inputs": [[304, 0, 0], [305, 0, 0], [306, 0, 0]]
    }, 
    {
      "op": "Activation", 
      "name": "activation5", 
      "attrs": {"act_type": "relu"}, 
      "inputs": [[307, 0, 0]]
    }, 
    {
      "op": "Dropout", 
      "name": "dropout12", 
      "attrs": {"p": "0.1"}, 
      "inputs": [[308, 0, 0]]
    }, 
    {
      "op": "null", 
      "name": "encoder_transformer_5_ff_h2o_weight", 
      "inputs": []
    }, 
    {
      "op": "null", 
      "name": "encoder_transformer_5_ff_h2o_bias", 
      "inputs": []
    }, 
    {
      "op": "FullyConnected", 
      "name": "fullyconnected17", 
      "attrs": {
        "flatten": "False", 
        "num_hidden": "520"
      }, 
      "inputs": [[309, 0, 0], [310, 0, 0], [311, 0, 0]]
    }, 
    {
      "op": "Dropout", 
      "name": "encoder_transformer_5_ff_post_dropout", 
      "attrs": {"p": "0.1"}, 
      "inputs": [[312, 0, 0]]
    }, 
    {
      "op": "elemwise_add", 
      "name": "encoder_transformer_5_ff_post_residual", 
      "inputs": [[313, 0, 0], [301, 0, 0]]
    }, 
    {
      "op": "null", 
      "name": "encoder_transformer_final_process_norm_gamma", 
      "attrs": {"__init__": "[\"constant\", {\"value\": 1.0}]"}, 
      "inputs": []
    }, 
    {
      "op": "null", 
      "name": "encoder_transformer_final_process_norm_beta", 
      "attrs": {"__init__": "[\"constant\", {\"value\": 0.0}]"}, 
      "inputs": []
    }, 
    {
      "op": "LayerNorm", 
      "name": "encoder_transformer_final_process_norm", 
      "attrs": {
        "axis": "-1", 
        "eps": "1e-06", 
        "output_mean_var": "False"
      }, 
      "inputs": [[314, 0, 0], [315, 0, 0], [316, 0, 0]]
    }, 
    {
      "op": "null", 
      "name": "decoder_transformer_0_att_enc_k2h_weight", 
      "inputs": []
    }, 
    {
      "op": "FullyConnected", 
      "name": "decoder_transformer_0_att_enc_k_transform", 
      "attrs": {
        "flatten": "False", 
        "no_bias": "True", 
        "num_hidden": "512"
      }, 
      "inputs": [[317, 0, 0], [318, 0, 0]]
    }, 
    {
      "op": "Reshape", 
      "name": "reshape60", 
      "attrs": {"shape": "(0, -1, 8, 64)"}, 
      "inputs": [[319, 0, 0]]
    }, 
    {
      "op": "transpose", 
      "name": "transpose29", 
      "attrs": {"axes": "(0, 2, 1, 3)"}, 
      "inputs": [[320, 0, 0]]
    }, 
    {
      "op": "Reshape", 
      "name": "reshape61", 
      "attrs": {"shape": "(-3, -1, 64)"}, 
      "inputs": [[321, 0, 0]]
    }, 
    {
      "op": "batch_dot", 
      "name": "decoder_transformer_0_att_enc_dot", 
      "attrs": {"transpose_b": "True"}, 
      "inputs": [[46, 0, 0], [322, 0, 0]]
    }, 
    {
      "op": "Custom", 
      "name": "custom1", 
      "attrs": {
        "max_length": "100", 
        "op_type": "variable_length_bias"
      }, 
      "inputs": [[76, 0, 0]]
    }, 
    {
      "op": "expand_dims", 
      "name": "expand_dims2", 
      "attrs": {"axis": "1"}, 
      "inputs": [[324, 0, 0]]
    }, 
    {
      "op": "broadcast_to", 
      "name": "broadcast_to1", 
      "attrs": {"shape": "[0, 8, 0]"}, 
      "inputs": [[325, 0, 0]]
    }, 
    {
      "op": "Reshape", 
      "name": "reshape49", 
      "attrs": {"shape": "[-3, 0]"}, 
      "inputs": [[326, 0, 0]]
    }, 
    {
      "op": "BlockGrad", 
      "name": "decoder_transformer_source_biasbias", 
      "inputs": [[327, 0, 0]]
    }, 
    {
      "op": "expand_dims", 
      "name": "expand_dims3", 
      "attrs": {"axis": "1"}, 
      "inputs": [[328, 0, 0]]
    }, 
    {
      "op": "broadcast_add", 
      "name": "decoder_transformer_0_att_enc_bias_add", 
      "inputs": [[323, 0, 0], [329, 0, 0]]
    }, 
    {
      "op": "softmax", 
      "name": "softmax7", 
      "attrs": {"axis": "-1"}, 
      "inputs": [[330, 0, 0]]
    }, 
    {
      "op": "Dropout", 
      "name": "dropout15", 
      "attrs": {"p": "0.1"}, 
      "inputs": [[331, 0, 0]]
    }, 
    {
      "op": "null", 
      "name": "decoder_transformer_0_att_enc_v2h_weight", 
      "inputs": []
    }, 
    {
      "op": "FullyConnected", 
      "name": "decoder_transformer_0_att_enc_v_transform", 
      "attrs": {
        "flatten": "False", 
        "no_bias": "True", 
        "num_hidden": "512"
      }, 
      "inputs": [[317, 0, 0], [333, 0, 0]]
    }, 
    {
      "op": "Reshape", 
      "name": "reshape62", 
      "attrs": {"shape": "(0, -1, 8, 64)"}, 
      "inputs": [[334, 0, 0]]
    }, 
    {
      "op": "transpose", 
      "name": "transpose30", 
      "attrs": {"axes": "(0, 2, 1, 3)"}, 
      "inputs": [[335, 0, 0]]
    }, 
    {
      "op": "Reshape", 
      "name": "reshape63", 
      "attrs": {"shape": "(-3, -1, 64)"}, 
      "inputs": [[336, 0, 0]]
    }, 
    {
      "op": "batch_dot", 
      "name": "decoder_transformer_0_att_enc_contexts", 
      "inputs": [[332, 0, 0], [337, 0, 0]]
    }, 
    {
      "op": "Reshape", 
      "name": "reshape64", 
      "attrs": {"shape": "(-4, -1, 8, 0, 64)"}, 
      "inputs": [[338, 0, 0]]
    }, 
    {
      "op": "transpose", 
      "name": "transpose31", 
      "attrs": {"axes": "(0, 2, 1, 3)"}, 
      "inputs": [[339, 0, 0]]
    }, 
    {
      "op": "Reshape", 
      "name": "reshape65", 
      "attrs": {"shape": "(-1, 0, 512)"}, 
      "inputs": [[340, 0, 0]]
    }, 
    {
      "op": "null", 
      "name": "decoder_transformer_0_att_enc_h2o_weight", 
      "inputs": []
    }, 
    {
      "op": "FullyConnected", 
      "name": "fullyconnected19", 
      "attrs": {
        "flatten": "False", 
        "no_bias": "True", 
        "num_hidden": "512"
      }, 
      "inputs": [[341, 0, 0], [342, 0, 0]]
    }, 
    {
      "op": "Dropout", 
      "name": "decoder_transformer_0_att_enc_post_dropout", 
      "attrs": {"p": "0.1"}, 
      "inputs": [[343, 0, 0]]
    }, 
    {
      "op": "elemwise_add", 
      "name": "decoder_transformer_0_att_enc_post_residual", 
      "inputs": [[344, 0, 0], [37, 0, 0]]
    }, 
    {
      "op": "null", 
      "name": "decoder_transformer_0_ff_pre_norm_gamma", 
      "attrs": {"__init__": "[\"constant\", {\"value\": 1.0}]"}, 
      "inputs": []
    }, 
    {
      "op": "null", 
      "name": "decoder_transformer_0_ff_pre_norm_beta", 
      "attrs": {"__init__": "[\"constant\", {\"value\": 0.0}]"}, 
      "inputs": []
    }, 
    {
      "op": "LayerNorm", 
      "name": "decoder_transformer_0_ff_pre_norm", 
      "attrs": {
        "axis": "-1", 
        "eps": "1e-06", 
        "output_mean_var": "False"
      }, 
      "inputs": [[345, 0, 0], [346, 0, 0], [347, 0, 0]]
    }, 
    {
      "op": "null", 
      "name": "decoder_transformer_0_ff_i2h_weight", 
      "inputs": []
    }, 
    {
      "op": "null", 
      "name": "decoder_transformer_0_ff_i2h_bias", 
      "inputs": []
    }, 
    {
      "op": "FullyConnected", 
      "name": "fullyconnected20", 
      "attrs": {
        "flatten": "False", 
        "num_hidden": "2048"
      }, 
      "inputs": [[348, 0, 0], [349, 0, 0], [350, 0, 0]]
    }, 
    {
      "op": "Activation", 
      "name": "activation6", 
      "attrs": {"act_type": "relu"}, 
      "inputs": [[351, 0, 0]]
    }, 
    {
      "op": "Dropout", 
      "name": "dropout16", 
      "attrs": {"p": "0.1"}, 
      "inputs": [[352, 0, 0]]
    }, 
    {
      "op": "null", 
      "name": "decoder_transformer_0_ff_h2o_weight", 
      "inputs": []
    }, 
    {
      "op": "null", 
      "name": "decoder_transformer_0_ff_h2o_bias", 
      "inputs": []
    }, 
    {
      "op": "FullyConnected", 
      "name": "fullyconnected21", 
      "attrs": {
        "flatten": "False", 
        "num_hidden": "512"
      }, 
      "inputs": [[353, 0, 0], [354, 0, 0], [355, 0, 0]]
    }, 
    {
      "op": "Dropout", 
      "name": "decoder_transformer_0_ff_post_dropout", 
      "attrs": {"p": "0.1"}, 
      "inputs": [[356, 0, 0]]
    }, 
    {
      "op": "elemwise_add", 
      "name": "decoder_transformer_0_ff_post_residual", 
      "inputs": [[357, 0, 0], [345, 0, 0]]
    }, 
    {
      "op": "null", 
      "name": "decoder_transformer_1_att_self_pre_norm_gamma", 
      "attrs": {"__init__": "[\"constant\", {\"value\": 1.0}]"}, 
      "inputs": []
    }, 
    {
      "op": "null", 
      "name": "decoder_transformer_1_att_self_pre_norm_beta", 
      "attrs": {"__init__": "[\"constant\", {\"value\": 0.0}]"}, 
      "inputs": []
    }, 
    {
      "op": "LayerNorm", 
      "name": "decoder_transformer_1_att_self_pre_norm", 
      "attrs": {
        "axis": "-1", 
        "eps": "1e-06", 
        "output_mean_var": "False"
      }, 
      "inputs": [[358, 0, 0], [359, 0, 0], [360, 0, 0]]
    }, 
    {
      "op": "null", 
      "name": "decoder_transformer_1_att_self_i2h_weight", 
      "inputs": []
    }, 
    {
      "op": "FullyConnected", 
      "name": "decoder_transformer_1_att_self_qkv_transform", 
      "attrs": {
        "flatten": "False", 
        "no_bias": "True", 
        "num_hidden": "1536"
      }, 
      "inputs": [[361, 0, 0], [362, 0, 0]]
    }, 
    {
      "op": "SliceChannel", 
      "name": "split7", 
      "attrs": {
        "axis": "2", 
        "num_outputs": "3"
      }, 
      "inputs": [[363, 0, 0]]
    }, 
    {
      "op": "_mul_scalar", 
      "name": "_mulscalar10", 
      "attrs": {"scalar": "0.125"}, 
      "inputs": [[364, 0, 0]]
    }, 
    {
      "op": "Reshape", 
      "name": "reshape66", 
      "attrs": {"shape": "(0, -1, 8, 64)"}, 
      "inputs": [[365, 0, 0]]
    }, 
    {
      "op": "transpose", 
      "name": "transpose32", 
      "attrs": {"axes": "(0, 2, 1, 3)"}, 
      "inputs": [[366, 0, 0]]
    }, 
    {
      "op": "Reshape", 
      "name": "reshape67", 
      "attrs": {"shape": "(-3, -1, 64)"}, 
      "inputs": [[367, 0, 0]]
    }, 
    {
      "op": "Reshape", 
      "name": "reshape68", 
      "attrs": {"shape": "(0, -1, 8, 64)"}, 
      "inputs": [[364, 1, 0]]
    }, 
    {
      "op": "transpose", 
      "name": "transpose33", 
      "attrs": {"axes": "(0, 2, 1, 3)"}, 
      "inputs": [[369, 0, 0]]
    }, 
    {
      "op": "Reshape", 
      "name": "reshape69", 
      "attrs": {"shape": "(-3, -1, 64)"}, 
      "inputs": [[370, 0, 0]]
    }, 
    {
      "op": "batch_dot", 
      "name": "decoder_transformer_1_att_self_dot", 
      "attrs": {"transpose_b": "True"}, 
      "inputs": [[368, 0, 0], [371, 0, 0]]
    }, 
    {
      "op": "broadcast_add", 
      "name": "decoder_transformer_1_att_self_bias_add", 
      "inputs": [[372, 0, 0], [23, 0, 0]]
    }, 
    {
      "op": "softmax", 
      "name": "softmax8", 
      "attrs": {"axis": "-1"}, 
      "inputs": [[373, 0, 0]]
    }, 
    {
      "op": "Dropout", 
      "name": "dropout17", 
      "attrs": {"p": "0.1"}, 
      "inputs": [[374, 0, 0]]
    }, 
    {
      "op": "Reshape", 
      "name": "reshape70", 
      "attrs": {"shape": "(0, -1, 8, 64)"}, 
      "inputs": [[364, 2, 0]]
    }, 
    {
      "op": "transpose", 
      "name": "transpose34", 
      "attrs": {"axes": "(0, 2, 1, 3)"}, 
      "inputs": [[376, 0, 0]]
    }, 
    {
      "op": "Reshape", 
      "name": "reshape71", 
      "attrs": {"shape": "(-3, -1, 64)"}, 
      "inputs": [[377, 0, 0]]
    }, 
    {
      "op": "batch_dot", 
      "name": "decoder_transformer_1_att_self_contexts", 
      "inputs": [[375, 0, 0], [378, 0, 0]]
    }, 
    {
      "op": "Reshape", 
      "name": "reshape72", 
      "attrs": {"shape": "(-4, -1, 8, 0, 64)"}, 
      "inputs": [[379, 0, 0]]
    }, 
    {
      "op": "transpose", 
      "name": "transpose35", 
      "attrs": {"axes": "(0, 2, 1, 3)"}, 
      "inputs": [[380, 0, 0]]
    }, 
    {
      "op": "Reshape", 
      "name": "reshape73", 
      "attrs": {"shape": "(-1, 0, 512)"}, 
      "inputs": [[381, 0, 0]]
    }, 
    {
      "op": "null", 
      "name": "decoder_transformer_1_att_self_h2o_weight", 
      "inputs": []
    }, 
    {
      "op": "FullyConnected", 
      "name": "fullyconnected22", 
      "attrs": {
        "flatten": "False", 
        "no_bias": "True", 
        "num_hidden": "512"
      }, 
      "inputs": [[382, 0, 0], [383, 0, 0]]
    }, 
    {
      "op": "Dropout", 
      "name": "decoder_transformer_1_att_self_post_dropout", 
      "attrs": {"p": "0.1"}, 
      "inputs": [[384, 0, 0]]
    }, 
    {
      "op": "elemwise_add", 
      "name": "decoder_transformer_1_att_self_post_residual", 
      "inputs": [[385, 0, 0], [358, 0, 0]]
    }, 
    {
      "op": "null", 
      "name": "decoder_transformer_1_att_enc_pre_norm_gamma", 
      "attrs": {"__init__": "[\"constant\", {\"value\": 1.0}]"}, 
      "inputs": []
    }, 
    {
      "op": "null", 
      "name": "decoder_transformer_1_att_enc_pre_norm_beta", 
      "attrs": {"__init__": "[\"constant\", {\"value\": 0.0}]"}, 
      "inputs": []
    }, 
    {
      "op": "LayerNorm", 
      "name": "decoder_transformer_1_att_enc_pre_norm", 
      "attrs": {
        "axis": "-1", 
        "eps": "1e-06", 
        "output_mean_var": "False"
      }, 
      "inputs": [[386, 0, 0], [387, 0, 0], [388, 0, 0]]
    }, 
    {
      "op": "null", 
      "name": "decoder_transformer_1_att_enc_q2h_weight", 
      "inputs": []
    }, 
    {
      "op": "FullyConnected", 
      "name": "decoder_transformer_1_att_enc_q_transform", 
      "attrs": {
        "flatten": "False", 
        "no_bias": "True", 
        "num_hidden": "512"
      }, 
      "inputs": [[389, 0, 0], [390, 0, 0]]
    }, 
    {
      "op": "_mul_scalar", 
      "name": "_mulscalar11", 
      "attrs": {"scalar": "0.125"}, 
      "inputs": [[391, 0, 0]]
    }, 
    {
      "op": "Reshape", 
      "name": "reshape74", 
      "attrs": {"shape": "(0, -1, 8, 64)"}, 
      "inputs": [[392, 0, 0]]
    }, 
    {
      "op": "transpose", 
      "name": "transpose36", 
      "attrs": {"axes": "(0, 2, 1, 3)"}, 
      "inputs": [[393, 0, 0]]
    }, 
    {
      "op": "Reshape", 
      "name": "reshape75", 
      "attrs": {"shape": "(-3, -1, 64)"}, 
      "inputs": [[394, 0, 0]]
    }, 
    {
      "op": "null", 
      "name": "decoder_transformer_1_att_enc_k2h_weight", 
      "inputs": []
    }, 
    {
      "op": "FullyConnected", 
      "name": "decoder_transformer_1_att_enc_k_transform", 
      "attrs": {
        "flatten": "False", 
        "no_bias": "True", 
        "num_hidden": "512"
      }, 
      "inputs": [[317, 0, 0], [396, 0, 0]]
    }, 
    {
      "op": "Reshape", 
      "name": "reshape76", 
      "attrs": {"shape": "(0, -1, 8, 64)"}, 
      "inputs": [[397, 0, 0]]
    }, 
    {
      "op": "transpose", 
      "name": "transpose37", 
      "attrs": {"axes": "(0, 2, 1, 3)"}, 
      "inputs": [[398, 0, 0]]
    }, 
    {
      "op": "Reshape", 
      "name": "reshape77", 
      "attrs": {"shape": "(-3, -1, 64)"}, 
      "inputs": [[399, 0, 0]]
    }, 
    {
      "op": "batch_dot", 
      "name": "decoder_transformer_1_att_enc_dot", 
      "attrs": {"transpose_b": "True"}, 
      "inputs": [[395, 0, 0], [400, 0, 0]]
    }, 
    {
      "op": "broadcast_add", 
      "name": "decoder_transformer_1_att_enc_bias_add", 
      "inputs": [[401, 0, 0], [329, 0, 0]]
    }, 
    {
      "op": "softmax", 
      "name": "softmax9", 
      "attrs": {"axis": "-1"}, 
      "inputs": [[402, 0, 0]]
    }, 
    {
      "op": "Dropout", 
      "name": "dropout18", 
      "attrs": {"p": "0.1"}, 
      "inputs": [[403, 0, 0]]
    }, 
    {
      "op": "null", 
      "name": "decoder_transformer_1_att_enc_v2h_weight", 
      "inputs": []
    }, 
    {
      "op": "FullyConnected", 
      "name": "decoder_transformer_1_att_enc_v_transform", 
      "attrs": {
        "flatten": "False", 
        "no_bias": "True", 
        "num_hidden": "512"
      }, 
      "inputs": [[317, 0, 0], [405, 0, 0]]
    }, 
    {
      "op": "Reshape", 
      "name": "reshape78", 
      "attrs": {"shape": "(0, -1, 8, 64)"}, 
      "inputs": [[406, 0, 0]]
    }, 
    {
      "op": "transpose", 
      "name": "transpose38", 
      "attrs": {"axes": "(0, 2, 1, 3)"}, 
      "inputs": [[407, 0, 0]]
    }, 
    {
      "op": "Reshape", 
      "name": "reshape79", 
      "attrs": {"shape": "(-3, -1, 64)"}, 
      "inputs": [[408, 0, 0]]
    }, 
    {
      "op": "batch_dot", 
      "name": "decoder_transformer_1_att_enc_contexts", 
      "inputs": [[404, 0, 0], [409, 0, 0]]
    }, 
    {
      "op": "Reshape", 
      "name": "reshape80", 
      "attrs": {"shape": "(-4, -1, 8, 0, 64)"}, 
      "inputs": [[410, 0, 0]]
    }, 
    {
      "op": "transpose", 
      "name": "transpose39", 
      "attrs": {"axes": "(0, 2, 1, 3)"}, 
      "inputs": [[411, 0, 0]]
    }, 
    {
      "op": "Reshape", 
      "name": "reshape81", 
      "attrs": {"shape": "(-1, 0, 512)"}, 
      "inputs": [[412, 0, 0]]
    }, 
    {
      "op": "null", 
      "name": "decoder_transformer_1_att_enc_h2o_weight", 
      "inputs": []
    }, 
    {
      "op": "FullyConnected", 
      "name": "fullyconnected23", 
      "attrs": {
        "flatten": "False", 
        "no_bias": "True", 
        "num_hidden": "512"
      }, 
      "inputs": [[413, 0, 0], [414, 0, 0]]
    }, 
    {
      "op": "Dropout", 
      "name": "decoder_transformer_1_att_enc_post_dropout", 
      "attrs": {"p": "0.1"}, 
      "inputs": [[415, 0, 0]]
    }, 
    {
      "op": "elemwise_add", 
      "name": "decoder_transformer_1_att_enc_post_residual", 
      "inputs": [[416, 0, 0], [386, 0, 0]]
    }, 
    {
      "op": "null", 
      "name": "decoder_transformer_1_ff_pre_norm_gamma", 
      "attrs": {"__init__": "[\"constant\", {\"value\": 1.0}]"}, 
      "inputs": []
    }, 
    {
      "op": "null", 
      "name": "decoder_transformer_1_ff_pre_norm_beta", 
      "attrs": {"__init__": "[\"constant\", {\"value\": 0.0}]"}, 
      "inputs": []
    }, 
    {
      "op": "LayerNorm", 
      "name": "decoder_transformer_1_ff_pre_norm", 
      "attrs": {
        "axis": "-1", 
        "eps": "1e-06", 
        "output_mean_var": "False"
      }, 
      "inputs": [[417, 0, 0], [418, 0, 0], [419, 0, 0]]
    }, 
    {
      "op": "null", 
      "name": "decoder_transformer_1_ff_i2h_weight", 
      "inputs": []
    }, 
    {
      "op": "null", 
      "name": "decoder_transformer_1_ff_i2h_bias", 
      "inputs": []
    }, 
    {
      "op": "FullyConnected", 
      "name": "fullyconnected24", 
      "attrs": {
        "flatten": "False", 
        "num_hidden": "2048"
      }, 
      "inputs": [[420, 0, 0], [421, 0, 0], [422, 0, 0]]
    }, 
    {
      "op": "Activation", 
      "name": "activation7", 
      "attrs": {"act_type": "relu"}, 
      "inputs": [[423, 0, 0]]
    }, 
    {
      "op": "Dropout", 
      "name": "dropout19", 
      "attrs": {"p": "0.1"}, 
      "inputs": [[424, 0, 0]]
    }, 
    {
      "op": "null", 
      "name": "decoder_transformer_1_ff_h2o_weight", 
      "inputs": []
    }, 
    {
      "op": "null", 
      "name": "decoder_transformer_1_ff_h2o_bias", 
      "inputs": []
    }, 
    {
      "op": "FullyConnected", 
      "name": "fullyconnected25", 
      "attrs": {
        "flatten": "False", 
        "num_hidden": "512"
      }, 
      "inputs": [[425, 0, 0], [426, 0, 0], [427, 0, 0]]
    }, 
    {
      "op": "Dropout", 
      "name": "decoder_transformer_1_ff_post_dropout", 
      "attrs": {"p": "0.1"}, 
      "inputs": [[428, 0, 0]]
    }, 
    {
      "op": "elemwise_add", 
      "name": "decoder_transformer_1_ff_post_residual", 
      "inputs": [[429, 0, 0], [417, 0, 0]]
    }, 
    {
      "op": "null", 
      "name": "decoder_transformer_2_att_self_pre_norm_gamma", 
      "attrs": {"__init__": "[\"constant\", {\"value\": 1.0}]"}, 
      "inputs": []
    }, 
    {
      "op": "null", 
      "name": "decoder_transformer_2_att_self_pre_norm_beta", 
      "attrs": {"__init__": "[\"constant\", {\"value\": 0.0}]"}, 
      "inputs": []
    }, 
    {
      "op": "LayerNorm", 
      "name": "decoder_transformer_2_att_self_pre_norm", 
      "attrs": {
        "axis": "-1", 
        "eps": "1e-06", 
        "output_mean_var": "False"
      }, 
      "inputs": [[430, 0, 0], [431, 0, 0], [432, 0, 0]]
    }, 
    {
      "op": "null", 
      "name": "decoder_transformer_2_att_self_i2h_weight", 
      "inputs": []
    }, 
    {
      "op": "FullyConnected", 
      "name": "decoder_transformer_2_att_self_qkv_transform", 
      "attrs": {
        "flatten": "False", 
        "no_bias": "True", 
        "num_hidden": "1536"
      }, 
      "inputs": [[433, 0, 0], [434, 0, 0]]
    }, 
    {
      "op": "SliceChannel", 
      "name": "split8", 
      "attrs": {
        "axis": "2", 
        "num_outputs": "3"
      }, 
      "inputs": [[435, 0, 0]]
    }, 
    {
      "op": "_mul_scalar", 
      "name": "_mulscalar12", 
      "attrs": {"scalar": "0.125"}, 
      "inputs": [[436, 0, 0]]
    }, 
    {
      "op": "Reshape", 
      "name": "reshape82", 
      "attrs": {"shape": "(0, -1, 8, 64)"}, 
      "inputs": [[437, 0, 0]]
    }, 
    {
      "op": "transpose", 
      "name": "transpose40", 
      "attrs": {"axes": "(0, 2, 1, 3)"}, 
      "inputs": [[438, 0, 0]]
    }, 
    {
      "op": "Reshape", 
      "name": "reshape83", 
      "attrs": {"shape": "(-3, -1, 64)"}, 
      "inputs": [[439, 0, 0]]
    }, 
    {
      "op": "Reshape", 
      "name": "reshape84", 
      "attrs": {"shape": "(0, -1, 8, 64)"}, 
      "inputs": [[436, 1, 0]]
    }, 
    {
      "op": "transpose", 
      "name": "transpose41", 
      "attrs": {"axes": "(0, 2, 1, 3)"}, 
      "inputs": [[441, 0, 0]]
    }, 
    {
      "op": "Reshape", 
      "name": "reshape85", 
      "attrs": {"shape": "(-3, -1, 64)"}, 
      "inputs": [[442, 0, 0]]
    }, 
    {
      "op": "batch_dot", 
      "name": "decoder_transformer_2_att_self_dot", 
      "attrs": {"transpose_b": "True"}, 
      "inputs": [[440, 0, 0], [443, 0, 0]]
    }, 
    {
      "op": "broadcast_add", 
      "name": "decoder_transformer_2_att_self_bias_add", 
      "inputs": [[444, 0, 0], [23, 0, 0]]
    }, 
    {
      "op": "softmax", 
      "name": "softmax10", 
      "attrs": {"axis": "-1"}, 
      "inputs": [[445, 0, 0]]
    }, 
    {
      "op": "Dropout", 
      "name": "dropout20", 
      "attrs": {"p": "0.1"}, 
      "inputs": [[446, 0, 0]]
    }, 
    {
      "op": "Reshape", 
      "name": "reshape86", 
      "attrs": {"shape": "(0, -1, 8, 64)"}, 
      "inputs": [[436, 2, 0]]
    }, 
    {
      "op": "transpose", 
      "name": "transpose42", 
      "attrs": {"axes": "(0, 2, 1, 3)"}, 
      "inputs": [[448, 0, 0]]
    }, 
    {
      "op": "Reshape", 
      "name": "reshape87", 
      "attrs": {"shape": "(-3, -1, 64)"}, 
      "inputs": [[449, 0, 0]]
    }, 
    {
      "op": "batch_dot", 
      "name": "decoder_transformer_2_att_self_contexts", 
      "inputs": [[447, 0, 0], [450, 0, 0]]
    }, 
    {
      "op": "Reshape", 
      "name": "reshape88", 
      "attrs": {"shape": "(-4, -1, 8, 0, 64)"}, 
      "inputs": [[451, 0, 0]]
    }, 
    {
      "op": "transpose", 
      "name": "transpose43", 
      "attrs": {"axes": "(0, 2, 1, 3)"}, 
      "inputs": [[452, 0, 0]]
    }, 
    {
      "op": "Reshape", 
      "name": "reshape89", 
      "attrs": {"shape": "(-1, 0, 512)"}, 
      "inputs": [[453, 0, 0]]
    }, 
    {
      "op": "null", 
      "name": "decoder_transformer_2_att_self_h2o_weight", 
      "inputs": []
    }, 
    {
      "op": "FullyConnected", 
      "name": "fullyconnected26", 
      "attrs": {
        "flatten": "False", 
        "no_bias": "True", 
        "num_hidden": "512"
      }, 
      "inputs": [[454, 0, 0], [455, 0, 0]]
    }, 
    {
      "op": "Dropout", 
      "name": "decoder_transformer_2_att_self_post_dropout", 
      "attrs": {"p": "0.1"}, 
      "inputs": [[456, 0, 0]]
    }, 
    {
      "op": "elemwise_add", 
      "name": "decoder_transformer_2_att_self_post_residual", 
      "inputs": [[457, 0, 0], [430, 0, 0]]
    }, 
    {
      "op": "null", 
      "name": "decoder_transformer_2_att_enc_pre_norm_gamma", 
      "attrs": {"__init__": "[\"constant\", {\"value\": 1.0}]"}, 
      "inputs": []
    }, 
    {
      "op": "null", 
      "name": "decoder_transformer_2_att_enc_pre_norm_beta", 
      "attrs": {"__init__": "[\"constant\", {\"value\": 0.0}]"}, 
      "inputs": []
    }, 
    {
      "op": "LayerNorm", 
      "name": "decoder_transformer_2_att_enc_pre_norm", 
      "attrs": {
        "axis": "-1", 
        "eps": "1e-06", 
        "output_mean_var": "False"
      }, 
      "inputs": [[458, 0, 0], [459, 0, 0], [460, 0, 0]]
    }, 
    {
      "op": "null", 
      "name": "decoder_transformer_2_att_enc_q2h_weight", 
      "inputs": []
    }, 
    {
      "op": "FullyConnected", 
      "name": "decoder_transformer_2_att_enc_q_transform", 
      "attrs": {
        "flatten": "False", 
        "no_bias": "True", 
        "num_hidden": "512"
      }, 
      "inputs": [[461, 0, 0], [462, 0, 0]]
    }, 
    {
      "op": "_mul_scalar", 
      "name": "_mulscalar13", 
      "attrs": {"scalar": "0.125"}, 
      "inputs": [[463, 0, 0]]
    }, 
    {
      "op": "Reshape", 
      "name": "reshape90", 
      "attrs": {"shape": "(0, -1, 8, 64)"}, 
      "inputs": [[464, 0, 0]]
    }, 
    {
      "op": "transpose", 
      "name": "transpose44", 
      "attrs": {"axes": "(0, 2, 1, 3)"}, 
      "inputs": [[465, 0, 0]]
    }, 
    {
      "op": "Reshape", 
      "name": "reshape91", 
      "attrs": {"shape": "(-3, -1, 64)"}, 
      "inputs": [[466, 0, 0]]
    }, 
    {
      "op": "null", 
      "name": "decoder_transformer_2_att_enc_k2h_weight", 
      "inputs": []
    }, 
    {
      "op": "FullyConnected", 
      "name": "decoder_transformer_2_att_enc_k_transform", 
      "attrs": {
        "flatten": "False", 
        "no_bias": "True", 
        "num_hidden": "512"
      }, 
      "inputs": [[317, 0, 0], [468, 0, 0]]
    }, 
    {
      "op": "Reshape", 
      "name": "reshape92", 
      "attrs": {"shape": "(0, -1, 8, 64)"}, 
      "inputs": [[469, 0, 0]]
    }, 
    {
      "op": "transpose", 
      "name": "transpose45", 
      "attrs": {"axes": "(0, 2, 1, 3)"}, 
      "inputs": [[470, 0, 0]]
    }, 
    {
      "op": "Reshape", 
      "name": "reshape93", 
      "attrs": {"shape": "(-3, -1, 64)"}, 
      "inputs": [[471, 0, 0]]
    }, 
    {
      "op": "batch_dot", 
      "name": "decoder_transformer_2_att_enc_dot", 
      "attrs": {"transpose_b": "True"}, 
      "inputs": [[467, 0, 0], [472, 0, 0]]
    }, 
    {
      "op": "broadcast_add", 
      "name": "decoder_transformer_2_att_enc_bias_add", 
      "inputs": [[473, 0, 0], [329, 0, 0]]
    }, 
    {
      "op": "softmax", 
      "name": "softmax11", 
      "attrs": {"axis": "-1"}, 
      "inputs": [[474, 0, 0]]
    }, 
    {
      "op": "Dropout", 
      "name": "dropout21", 
      "attrs": {"p": "0.1"}, 
      "inputs": [[475, 0, 0]]
    }, 
    {
      "op": "null", 
      "name": "decoder_transformer_2_att_enc_v2h_weight", 
      "inputs": []
    }, 
    {
      "op": "FullyConnected", 
      "name": "decoder_transformer_2_att_enc_v_transform", 
      "attrs": {
        "flatten": "False", 
        "no_bias": "True", 
        "num_hidden": "512"
      }, 
      "inputs": [[317, 0, 0], [477, 0, 0]]
    }, 
    {
      "op": "Reshape", 
      "name": "reshape94", 
      "attrs": {"shape": "(0, -1, 8, 64)"}, 
      "inputs": [[478, 0, 0]]
    }, 
    {
      "op": "transpose", 
      "name": "transpose46", 
      "attrs": {"axes": "(0, 2, 1, 3)"}, 
      "inputs": [[479, 0, 0]]
    }, 
    {
      "op": "Reshape", 
      "name": "reshape95", 
      "attrs": {"shape": "(-3, -1, 64)"}, 
      "inputs": [[480, 0, 0]]
    }, 
    {
      "op": "batch_dot", 
      "name": "decoder_transformer_2_att_enc_contexts", 
      "inputs": [[476, 0, 0], [481, 0, 0]]
    }, 
    {
      "op": "Reshape", 
      "name": "reshape96", 
      "attrs": {"shape": "(-4, -1, 8, 0, 64)"}, 
      "inputs": [[482, 0, 0]]
    }, 
    {
      "op": "transpose", 
      "name": "transpose47", 
      "attrs": {"axes": "(0, 2, 1, 3)"}, 
      "inputs": [[483, 0, 0]]
    }, 
    {
      "op": "Reshape", 
      "name": "reshape97", 
      "attrs": {"shape": "(-1, 0, 512)"}, 
      "inputs": [[484, 0, 0]]
    }, 
    {
      "op": "null", 
      "name": "decoder_transformer_2_att_enc_h2o_weight", 
      "inputs": []
    }, 
    {
      "op": "FullyConnected", 
      "name": "fullyconnected27", 
      "attrs": {
        "flatten": "False", 
        "no_bias": "True", 
        "num_hidden": "512"
      }, 
      "inputs": [[485, 0, 0], [486, 0, 0]]
    }, 
    {
      "op": "Dropout", 
      "name": "decoder_transformer_2_att_enc_post_dropout", 
      "attrs": {"p": "0.1"}, 
      "inputs": [[487, 0, 0]]
    }, 
    {
      "op": "elemwise_add", 
      "name": "decoder_transformer_2_att_enc_post_residual", 
      "inputs": [[488, 0, 0], [458, 0, 0]]
    }, 
    {
      "op": "null", 
      "name": "decoder_transformer_2_ff_pre_norm_gamma", 
      "attrs": {"__init__": "[\"constant\", {\"value\": 1.0}]"}, 
      "inputs": []
    }, 
    {
      "op": "null", 
      "name": "decoder_transformer_2_ff_pre_norm_beta", 
      "attrs": {"__init__": "[\"constant\", {\"value\": 0.0}]"}, 
      "inputs": []
    }, 
    {
      "op": "LayerNorm", 
      "name": "decoder_transformer_2_ff_pre_norm", 
      "attrs": {
        "axis": "-1", 
        "eps": "1e-06", 
        "output_mean_var": "False"
      }, 
      "inputs": [[489, 0, 0], [490, 0, 0], [491, 0, 0]]
    }, 
    {
      "op": "null", 
      "name": "decoder_transformer_2_ff_i2h_weight", 
      "inputs": []
    }, 
    {
      "op": "null", 
      "name": "decoder_transformer_2_ff_i2h_bias", 
      "inputs": []
    }, 
    {
      "op": "FullyConnected", 
      "name": "fullyconnected28", 
      "attrs": {
        "flatten": "False", 
        "num_hidden": "2048"
      }, 
      "inputs": [[492, 0, 0], [493, 0, 0], [494, 0, 0]]
    }, 
    {
      "op": "Activation", 
      "name": "activation8", 
      "attrs": {"act_type": "relu"}, 
      "inputs": [[495, 0, 0]]
    }, 
    {
      "op": "Dropout", 
      "name": "dropout22", 
      "attrs": {"p": "0.1"}, 
      "inputs": [[496, 0, 0]]
    }, 
    {
      "op": "null", 
      "name": "decoder_transformer_2_ff_h2o_weight", 
      "inputs": []
    }, 
    {
      "op": "null", 
      "name": "decoder_transformer_2_ff_h2o_bias", 
      "inputs": []
    }, 
    {
      "op": "FullyConnected", 
      "name": "fullyconnected29", 
      "attrs": {
        "flatten": "False", 
        "num_hidden": "512"
      }, 
      "inputs": [[497, 0, 0], [498, 0, 0], [499, 0, 0]]
    }, 
    {
      "op": "Dropout", 
      "name": "decoder_transformer_2_ff_post_dropout", 
      "attrs": {"p": "0.1"}, 
      "inputs": [[500, 0, 0]]
    }, 
    {
      "op": "elemwise_add", 
      "name": "decoder_transformer_2_ff_post_residual", 
      "inputs": [[501, 0, 0], [489, 0, 0]]
    }, 
    {
      "op": "null", 
      "name": "decoder_transformer_3_att_self_pre_norm_gamma", 
      "attrs": {"__init__": "[\"constant\", {\"value\": 1.0}]"}, 
      "inputs": []
    }, 
    {
      "op": "null", 
      "name": "decoder_transformer_3_att_self_pre_norm_beta", 
      "attrs": {"__init__": "[\"constant\", {\"value\": 0.0}]"}, 
      "inputs": []
    }, 
    {
      "op": "LayerNorm", 
      "name": "decoder_transformer_3_att_self_pre_norm", 
      "attrs": {
        "axis": "-1", 
        "eps": "1e-06", 
        "output_mean_var": "False"
      }, 
      "inputs": [[502, 0, 0], [503, 0, 0], [504, 0, 0]]
    }, 
    {
      "op": "null", 
      "name": "decoder_transformer_3_att_self_i2h_weight", 
      "inputs": []
    }, 
    {
      "op": "FullyConnected", 
      "name": "decoder_transformer_3_att_self_qkv_transform", 
      "attrs": {
        "flatten": "False", 
        "no_bias": "True", 
        "num_hidden": "1536"
      }, 
      "inputs": [[505, 0, 0], [506, 0, 0]]
    }, 
    {
      "op": "SliceChannel", 
      "name": "split9", 
      "attrs": {
        "axis": "2", 
        "num_outputs": "3"
      }, 
      "inputs": [[507, 0, 0]]
    }, 
    {
      "op": "_mul_scalar", 
      "name": "_mulscalar14", 
      "attrs": {"scalar": "0.125"}, 
      "inputs": [[508, 0, 0]]
    }, 
    {
      "op": "Reshape", 
      "name": "reshape98", 
      "attrs": {"shape": "(0, -1, 8, 64)"}, 
      "inputs": [[509, 0, 0]]
    }, 
    {
      "op": "transpose", 
      "name": "transpose48", 
      "attrs": {"axes": "(0, 2, 1, 3)"}, 
      "inputs": [[510, 0, 0]]
    }, 
    {
      "op": "Reshape", 
      "name": "reshape99", 
      "attrs": {"shape": "(-3, -1, 64)"}, 
      "inputs": [[511, 0, 0]]
    }, 
    {
      "op": "Reshape", 
      "name": "reshape100", 
      "attrs": {"shape": "(0, -1, 8, 64)"}, 
      "inputs": [[508, 1, 0]]
    }, 
    {
      "op": "transpose", 
      "name": "transpose49", 
      "attrs": {"axes": "(0, 2, 1, 3)"}, 
      "inputs": [[513, 0, 0]]
    }, 
    {
      "op": "Reshape", 
      "name": "reshape101", 
      "attrs": {"shape": "(-3, -1, 64)"}, 
      "inputs": [[514, 0, 0]]
    }, 
    {
      "op": "batch_dot", 
      "name": "decoder_transformer_3_att_self_dot", 
      "attrs": {"transpose_b": "True"}, 
      "inputs": [[512, 0, 0], [515, 0, 0]]
    }, 
    {
      "op": "broadcast_add", 
      "name": "decoder_transformer_3_att_self_bias_add", 
      "inputs": [[516, 0, 0], [23, 0, 0]]
    }, 
    {
      "op": "softmax", 
      "name": "softmax12", 
      "attrs": {"axis": "-1"}, 
      "inputs": [[517, 0, 0]]
    }, 
    {
      "op": "Dropout", 
      "name": "dropout23", 
      "attrs": {"p": "0.1"}, 
      "inputs": [[518, 0, 0]]
    }, 
    {
      "op": "Reshape", 
      "name": "reshape102", 
      "attrs": {"shape": "(0, -1, 8, 64)"}, 
      "inputs": [[508, 2, 0]]
    }, 
    {
      "op": "transpose", 
      "name": "transpose50", 
      "attrs": {"axes": "(0, 2, 1, 3)"}, 
      "inputs": [[520, 0, 0]]
    }, 
    {
      "op": "Reshape", 
      "name": "reshape103", 
      "attrs": {"shape": "(-3, -1, 64)"}, 
      "inputs": [[521, 0, 0]]
    }, 
    {
      "op": "batch_dot", 
      "name": "decoder_transformer_3_att_self_contexts", 
      "inputs": [[519, 0, 0], [522, 0, 0]]
    }, 
    {
      "op": "Reshape", 
      "name": "reshape104", 
      "attrs": {"shape": "(-4, -1, 8, 0, 64)"}, 
      "inputs": [[523, 0, 0]]
    }, 
    {
      "op": "transpose", 
      "name": "transpose51", 
      "attrs": {"axes": "(0, 2, 1, 3)"}, 
      "inputs": [[524, 0, 0]]
    }, 
    {
      "op": "Reshape", 
      "name": "reshape105", 
      "attrs": {"shape": "(-1, 0, 512)"}, 
      "inputs": [[525, 0, 0]]
    }, 
    {
      "op": "null", 
      "name": "decoder_transformer_3_att_self_h2o_weight", 
      "inputs": []
    }, 
    {
      "op": "FullyConnected", 
      "name": "fullyconnected30", 
      "attrs": {
        "flatten": "False", 
        "no_bias": "True", 
        "num_hidden": "512"
      }, 
      "inputs": [[526, 0, 0], [527, 0, 0]]
    }, 
    {
      "op": "Dropout", 
      "name": "decoder_transformer_3_att_self_post_dropout", 
      "attrs": {"p": "0.1"}, 
      "inputs": [[528, 0, 0]]
    }, 
    {
      "op": "elemwise_add", 
      "name": "decoder_transformer_3_att_self_post_residual", 
      "inputs": [[529, 0, 0], [502, 0, 0]]
    }, 
    {
      "op": "null", 
      "name": "decoder_transformer_3_att_enc_pre_norm_gamma", 
      "attrs": {"__init__": "[\"constant\", {\"value\": 1.0}]"}, 
      "inputs": []
    }, 
    {
      "op": "null", 
      "name": "decoder_transformer_3_att_enc_pre_norm_beta", 
      "attrs": {"__init__": "[\"constant\", {\"value\": 0.0}]"}, 
      "inputs": []
    }, 
    {
      "op": "LayerNorm", 
      "name": "decoder_transformer_3_att_enc_pre_norm", 
      "attrs": {
        "axis": "-1", 
        "eps": "1e-06", 
        "output_mean_var": "False"
      }, 
      "inputs": [[530, 0, 0], [531, 0, 0], [532, 0, 0]]
    }, 
    {
      "op": "null", 
      "name": "decoder_transformer_3_att_enc_q2h_weight", 
      "inputs": []
    }, 
    {
      "op": "FullyConnected", 
      "name": "decoder_transformer_3_att_enc_q_transform", 
      "attrs": {
        "flatten": "False", 
        "no_bias": "True", 
        "num_hidden": "512"
      }, 
      "inputs": [[533, 0, 0], [534, 0, 0]]
    }, 
    {
      "op": "_mul_scalar", 
      "name": "_mulscalar15", 
      "attrs": {"scalar": "0.125"}, 
      "inputs": [[535, 0, 0]]
    }, 
    {
      "op": "Reshape", 
      "name": "reshape106", 
      "attrs": {"shape": "(0, -1, 8, 64)"}, 
      "inputs": [[536, 0, 0]]
    }, 
    {
      "op": "transpose", 
      "name": "transpose52", 
      "attrs": {"axes": "(0, 2, 1, 3)"}, 
      "inputs": [[537, 0, 0]]
    }, 
    {
      "op": "Reshape", 
      "name": "reshape107", 
      "attrs": {"shape": "(-3, -1, 64)"}, 
      "inputs": [[538, 0, 0]]
    }, 
    {
      "op": "null", 
      "name": "decoder_transformer_3_att_enc_k2h_weight", 
      "inputs": []
    }, 
    {
      "op": "FullyConnected", 
      "name": "decoder_transformer_3_att_enc_k_transform", 
      "attrs": {
        "flatten": "False", 
        "no_bias": "True", 
        "num_hidden": "512"
      }, 
      "inputs": [[317, 0, 0], [540, 0, 0]]
    }, 
    {
      "op": "Reshape", 
      "name": "reshape108", 
      "attrs": {"shape": "(0, -1, 8, 64)"}, 
      "inputs": [[541, 0, 0]]
    }, 
    {
      "op": "transpose", 
      "name": "transpose53", 
      "attrs": {"axes": "(0, 2, 1, 3)"}, 
      "inputs": [[542, 0, 0]]
    }, 
    {
      "op": "Reshape", 
      "name": "reshape109", 
      "attrs": {"shape": "(-3, -1, 64)"}, 
      "inputs": [[543, 0, 0]]
    }, 
    {
      "op": "batch_dot", 
      "name": "decoder_transformer_3_att_enc_dot", 
      "attrs": {"transpose_b": "True"}, 
      "inputs": [[539, 0, 0], [544, 0, 0]]
    }, 
    {
      "op": "broadcast_add", 
      "name": "decoder_transformer_3_att_enc_bias_add", 
      "inputs": [[545, 0, 0], [329, 0, 0]]
    }, 
    {
      "op": "softmax", 
      "name": "softmax13", 
      "attrs": {"axis": "-1"}, 
      "inputs": [[546, 0, 0]]
    }, 
    {
      "op": "Dropout", 
      "name": "dropout24", 
      "attrs": {"p": "0.1"}, 
      "inputs": [[547, 0, 0]]
    }, 
    {
      "op": "null", 
      "name": "decoder_transformer_3_att_enc_v2h_weight", 
      "inputs": []
    }, 
    {
      "op": "FullyConnected", 
      "name": "decoder_transformer_3_att_enc_v_transform", 
      "attrs": {
        "flatten": "False", 
        "no_bias": "True", 
        "num_hidden": "512"
      }, 
      "inputs": [[317, 0, 0], [549, 0, 0]]
    }, 
    {
      "op": "Reshape", 
      "name": "reshape110", 
      "attrs": {"shape": "(0, -1, 8, 64)"}, 
      "inputs": [[550, 0, 0]]
    }, 
    {
      "op": "transpose", 
      "name": "transpose54", 
      "attrs": {"axes": "(0, 2, 1, 3)"}, 
      "inputs": [[551, 0, 0]]
    }, 
    {
      "op": "Reshape", 
      "name": "reshape111", 
      "attrs": {"shape": "(-3, -1, 64)"}, 
      "inputs": [[552, 0, 0]]
    }, 
    {
      "op": "batch_dot", 
      "name": "decoder_transformer_3_att_enc_contexts", 
      "inputs": [[548, 0, 0], [553, 0, 0]]
    }, 
    {
      "op": "Reshape", 
      "name": "reshape112", 
      "attrs": {"shape": "(-4, -1, 8, 0, 64)"}, 
      "inputs": [[554, 0, 0]]
    }, 
    {
      "op": "transpose", 
      "name": "transpose55", 
      "attrs": {"axes": "(0, 2, 1, 3)"}, 
      "inputs": [[555, 0, 0]]
    }, 
    {
      "op": "Reshape", 
      "name": "reshape113", 
      "attrs": {"shape": "(-1, 0, 512)"}, 
      "inputs": [[556, 0, 0]]
    }, 
    {
      "op": "null", 
      "name": "decoder_transformer_3_att_enc_h2o_weight", 
      "inputs": []
    }, 
    {
      "op": "FullyConnected", 
      "name": "fullyconnected31", 
      "attrs": {
        "flatten": "False", 
        "no_bias": "True", 
        "num_hidden": "512"
      }, 
      "inputs": [[557, 0, 0], [558, 0, 0]]
    }, 
    {
      "op": "Dropout", 
      "name": "decoder_transformer_3_att_enc_post_dropout", 
      "attrs": {"p": "0.1"}, 
      "inputs": [[559, 0, 0]]
    }, 
    {
      "op": "elemwise_add", 
      "name": "decoder_transformer_3_att_enc_post_residual", 
      "inputs": [[560, 0, 0], [530, 0, 0]]
    }, 
    {
      "op": "null", 
      "name": "decoder_transformer_3_ff_pre_norm_gamma", 
      "attrs": {"__init__": "[\"constant\", {\"value\": 1.0}]"}, 
      "inputs": []
    }, 
    {
      "op": "null", 
      "name": "decoder_transformer_3_ff_pre_norm_beta", 
      "attrs": {"__init__": "[\"constant\", {\"value\": 0.0}]"}, 
      "inputs": []
    }, 
    {
      "op": "LayerNorm", 
      "name": "decoder_transformer_3_ff_pre_norm", 
      "attrs": {
        "axis": "-1", 
        "eps": "1e-06", 
        "output_mean_var": "False"
      }, 
      "inputs": [[561, 0, 0], [562, 0, 0], [563, 0, 0]]
    }, 
    {
      "op": "null", 
      "name": "decoder_transformer_3_ff_i2h_weight", 
      "inputs": []
    }, 
    {
      "op": "null", 
      "name": "decoder_transformer_3_ff_i2h_bias", 
      "inputs": []
    }, 
    {
      "op": "FullyConnected", 
      "name": "fullyconnected32", 
      "attrs": {
        "flatten": "False", 
        "num_hidden": "2048"
      }, 
      "inputs": [[564, 0, 0], [565, 0, 0], [566, 0, 0]]
    }, 
    {
      "op": "Activation", 
      "name": "activation9", 
      "attrs": {"act_type": "relu"}, 
      "inputs": [[567, 0, 0]]
    }, 
    {
      "op": "Dropout", 
      "name": "dropout25", 
      "attrs": {"p": "0.1"}, 
      "inputs": [[568, 0, 0]]
    }, 
    {
      "op": "null", 
      "name": "decoder_transformer_3_ff_h2o_weight", 
      "inputs": []
    }, 
    {
      "op": "null", 
      "name": "decoder_transformer_3_ff_h2o_bias", 
      "inputs": []
    }, 
    {
      "op": "FullyConnected", 
      "name": "fullyconnected33", 
      "attrs": {
        "flatten": "False", 
        "num_hidden": "512"
      }, 
      "inputs": [[569, 0, 0], [570, 0, 0], [571, 0, 0]]
    }, 
    {
      "op": "Dropout", 
      "name": "decoder_transformer_3_ff_post_dropout", 
      "attrs": {"p": "0.1"}, 
      "inputs": [[572, 0, 0]]
    }, 
    {
      "op": "elemwise_add", 
      "name": "decoder_transformer_3_ff_post_residual", 
      "inputs": [[573, 0, 0], [561, 0, 0]]
    }, 
    {
      "op": "null", 
      "name": "decoder_transformer_4_att_self_pre_norm_gamma", 
      "attrs": {"__init__": "[\"constant\", {\"value\": 1.0}]"}, 
      "inputs": []
    }, 
    {
      "op": "null", 
      "name": "decoder_transformer_4_att_self_pre_norm_beta", 
      "attrs": {"__init__": "[\"constant\", {\"value\": 0.0}]"}, 
      "inputs": []
    }, 
    {
      "op": "LayerNorm", 
      "name": "decoder_transformer_4_att_self_pre_norm", 
      "attrs": {
        "axis": "-1", 
        "eps": "1e-06", 
        "output_mean_var": "False"
      }, 
      "inputs": [[574, 0, 0], [575, 0, 0], [576, 0, 0]]
    }, 
    {
      "op": "null", 
      "name": "decoder_transformer_4_att_self_i2h_weight", 
      "inputs": []
    }, 
    {
      "op": "FullyConnected", 
      "name": "decoder_transformer_4_att_self_qkv_transform", 
      "attrs": {
        "flatten": "False", 
        "no_bias": "True", 
        "num_hidden": "1536"
      }, 
      "inputs": [[577, 0, 0], [578, 0, 0]]
    }, 
    {
      "op": "SliceChannel", 
      "name": "split10", 
      "attrs": {
        "axis": "2", 
        "num_outputs": "3"
      }, 
      "inputs": [[579, 0, 0]]
    }, 
    {
      "op": "_mul_scalar", 
      "name": "_mulscalar16", 
      "attrs": {"scalar": "0.125"}, 
      "inputs": [[580, 0, 0]]
    }, 
    {
      "op": "Reshape", 
      "name": "reshape114", 
      "attrs": {"shape": "(0, -1, 8, 64)"}, 
      "inputs": [[581, 0, 0]]
    }, 
    {
      "op": "transpose", 
      "name": "transpose56", 
      "attrs": {"axes": "(0, 2, 1, 3)"}, 
      "inputs": [[582, 0, 0]]
    }, 
    {
      "op": "Reshape", 
      "name": "reshape115", 
      "attrs": {"shape": "(-3, -1, 64)"}, 
      "inputs": [[583, 0, 0]]
    }, 
    {
      "op": "Reshape", 
      "name": "reshape116", 
      "attrs": {"shape": "(0, -1, 8, 64)"}, 
      "inputs": [[580, 1, 0]]
    }, 
    {
      "op": "transpose", 
      "name": "transpose57", 
      "attrs": {"axes": "(0, 2, 1, 3)"}, 
      "inputs": [[585, 0, 0]]
    }, 
    {
      "op": "Reshape", 
      "name": "reshape117", 
      "attrs": {"shape": "(-3, -1, 64)"}, 
      "inputs": [[586, 0, 0]]
    }, 
    {
      "op": "batch_dot", 
      "name": "decoder_transformer_4_att_self_dot", 
      "attrs": {"transpose_b": "True"}, 
      "inputs": [[584, 0, 0], [587, 0, 0]]
    }, 
    {
      "op": "broadcast_add", 
      "name": "decoder_transformer_4_att_self_bias_add", 
      "inputs": [[588, 0, 0], [23, 0, 0]]
    }, 
    {
      "op": "softmax", 
      "name": "softmax14", 
      "attrs": {"axis": "-1"}, 
      "inputs": [[589, 0, 0]]
    }, 
    {
      "op": "Dropout", 
      "name": "dropout26", 
      "attrs": {"p": "0.1"}, 
      "inputs": [[590, 0, 0]]
    }, 
    {
      "op": "Reshape", 
      "name": "reshape118", 
      "attrs": {"shape": "(0, -1, 8, 64)"}, 
      "inputs": [[580, 2, 0]]
    }, 
    {
      "op": "transpose", 
      "name": "transpose58", 
      "attrs": {"axes": "(0, 2, 1, 3)"}, 
      "inputs": [[592, 0, 0]]
    }, 
    {
      "op": "Reshape", 
      "name": "reshape119", 
      "attrs": {"shape": "(-3, -1, 64)"}, 
      "inputs": [[593, 0, 0]]
    }, 
    {
      "op": "batch_dot", 
      "name": "decoder_transformer_4_att_self_contexts", 
      "inputs": [[591, 0, 0], [594, 0, 0]]
    }, 
    {
      "op": "Reshape", 
      "name": "reshape120", 
      "attrs": {"shape": "(-4, -1, 8, 0, 64)"}, 
      "inputs": [[595, 0, 0]]
    }, 
    {
      "op": "transpose", 
      "name": "transpose59", 
      "attrs": {"axes": "(0, 2, 1, 3)"}, 
      "inputs": [[596, 0, 0]]
    }, 
    {
      "op": "Reshape", 
      "name": "reshape121", 
      "attrs": {"shape": "(-1, 0, 512)"}, 
      "inputs": [[597, 0, 0]]
    }, 
    {
      "op": "null", 
      "name": "decoder_transformer_4_att_self_h2o_weight", 
      "inputs": []
    }, 
    {
      "op": "FullyConnected", 
      "name": "fullyconnected34", 
      "attrs": {
        "flatten": "False", 
        "no_bias": "True", 
        "num_hidden": "512"
      }, 
      "inputs": [[598, 0, 0], [599, 0, 0]]
    }, 
    {
      "op": "Dropout", 
      "name": "decoder_transformer_4_att_self_post_dropout", 
      "attrs": {"p": "0.1"}, 
      "inputs": [[600, 0, 0]]
    }, 
    {
      "op": "elemwise_add", 
      "name": "decoder_transformer_4_att_self_post_residual", 
      "inputs": [[601, 0, 0], [574, 0, 0]]
    }, 
    {
      "op": "null", 
      "name": "decoder_transformer_4_att_enc_pre_norm_gamma", 
      "attrs": {"__init__": "[\"constant\", {\"value\": 1.0}]"}, 
      "inputs": []
    }, 
    {
      "op": "null", 
      "name": "decoder_transformer_4_att_enc_pre_norm_beta", 
      "attrs": {"__init__": "[\"constant\", {\"value\": 0.0}]"}, 
      "inputs": []
    }, 
    {
      "op": "LayerNorm", 
      "name": "decoder_transformer_4_att_enc_pre_norm", 
      "attrs": {
        "axis": "-1", 
        "eps": "1e-06", 
        "output_mean_var": "False"
      }, 
      "inputs": [[602, 0, 0], [603, 0, 0], [604, 0, 0]]
    }, 
    {
      "op": "null", 
      "name": "decoder_transformer_4_att_enc_q2h_weight", 
      "inputs": []
    }, 
    {
      "op": "FullyConnected", 
      "name": "decoder_transformer_4_att_enc_q_transform", 
      "attrs": {
        "flatten": "False", 
        "no_bias": "True", 
        "num_hidden": "512"
      }, 
      "inputs": [[605, 0, 0], [606, 0, 0]]
    }, 
    {
      "op": "_mul_scalar", 
      "name": "_mulscalar17", 
      "attrs": {"scalar": "0.125"}, 
      "inputs": [[607, 0, 0]]
    }, 
    {
      "op": "Reshape", 
      "name": "reshape122", 
      "attrs": {"shape": "(0, -1, 8, 64)"}, 
      "inputs": [[608, 0, 0]]
    }, 
    {
      "op": "transpose", 
      "name": "transpose60", 
      "attrs": {"axes": "(0, 2, 1, 3)"}, 
      "inputs": [[609, 0, 0]]
    }, 
    {
      "op": "Reshape", 
      "name": "reshape123", 
      "attrs": {"shape": "(-3, -1, 64)"}, 
      "inputs": [[610, 0, 0]]
    }, 
    {
      "op": "null", 
      "name": "decoder_transformer_4_att_enc_k2h_weight", 
      "inputs": []
    }, 
    {
      "op": "FullyConnected", 
      "name": "decoder_transformer_4_att_enc_k_transform", 
      "attrs": {
        "flatten": "False", 
        "no_bias": "True", 
        "num_hidden": "512"
      }, 
      "inputs": [[317, 0, 0], [612, 0, 0]]
    }, 
    {
      "op": "Reshape", 
      "name": "reshape124", 
      "attrs": {"shape": "(0, -1, 8, 64)"}, 
      "inputs": [[613, 0, 0]]
    }, 
    {
      "op": "transpose", 
      "name": "transpose61", 
      "attrs": {"axes": "(0, 2, 1, 3)"}, 
      "inputs": [[614, 0, 0]]
    }, 
    {
      "op": "Reshape", 
      "name": "reshape125", 
      "attrs": {"shape": "(-3, -1, 64)"}, 
      "inputs": [[615, 0, 0]]
    }, 
    {
      "op": "batch_dot", 
      "name": "decoder_transformer_4_att_enc_dot", 
      "attrs": {"transpose_b": "True"}, 
      "inputs": [[611, 0, 0], [616, 0, 0]]
    }, 
    {
      "op": "broadcast_add", 
      "name": "decoder_transformer_4_att_enc_bias_add", 
      "inputs": [[617, 0, 0], [329, 0, 0]]
    }, 
    {
      "op": "softmax", 
      "name": "softmax15", 
      "attrs": {"axis": "-1"}, 
      "inputs": [[618, 0, 0]]
    }, 
    {
      "op": "Dropout", 
      "name": "dropout27", 
      "attrs": {"p": "0.1"}, 
      "inputs": [[619, 0, 0]]
    }, 
    {
      "op": "null", 
      "name": "decoder_transformer_4_att_enc_v2h_weight", 
      "inputs": []
    }, 
    {
      "op": "FullyConnected", 
      "name": "decoder_transformer_4_att_enc_v_transform", 
      "attrs": {
        "flatten": "False", 
        "no_bias": "True", 
        "num_hidden": "512"
      }, 
      "inputs": [[317, 0, 0], [621, 0, 0]]
    }, 
    {
      "op": "Reshape", 
      "name": "reshape126", 
      "attrs": {"shape": "(0, -1, 8, 64)"}, 
      "inputs": [[622, 0, 0]]
    }, 
    {
      "op": "transpose", 
      "name": "transpose62", 
      "attrs": {"axes": "(0, 2, 1, 3)"}, 
      "inputs": [[623, 0, 0]]
    }, 
    {
      "op": "Reshape", 
      "name": "reshape127", 
      "attrs": {"shape": "(-3, -1, 64)"}, 
      "inputs": [[624, 0, 0]]
    }, 
    {
      "op": "batch_dot", 
      "name": "decoder_transformer_4_att_enc_contexts", 
      "inputs": [[620, 0, 0], [625, 0, 0]]
    }, 
    {
      "op": "Reshape", 
      "name": "reshape128", 
      "attrs": {"shape": "(-4, -1, 8, 0, 64)"}, 
      "inputs": [[626, 0, 0]]
    }, 
    {
      "op": "transpose", 
      "name": "transpose63", 
      "attrs": {"axes": "(0, 2, 1, 3)"}, 
      "inputs": [[627, 0, 0]]
    }, 
    {
      "op": "Reshape", 
      "name": "reshape129", 
      "attrs": {"shape": "(-1, 0, 512)"}, 
      "inputs": [[628, 0, 0]]
    }, 
    {
      "op": "null", 
      "name": "decoder_transformer_4_att_enc_h2o_weight", 
      "inputs": []
    }, 
    {
      "op": "FullyConnected", 
      "name": "fullyconnected35", 
      "attrs": {
        "flatten": "False", 
        "no_bias": "True", 
        "num_hidden": "512"
      }, 
      "inputs": [[629, 0, 0], [630, 0, 0]]
    }, 
    {
      "op": "Dropout", 
      "name": "decoder_transformer_4_att_enc_post_dropout", 
      "attrs": {"p": "0.1"}, 
      "inputs": [[631, 0, 0]]
    }, 
    {
      "op": "elemwise_add", 
      "name": "decoder_transformer_4_att_enc_post_residual", 
      "inputs": [[632, 0, 0], [602, 0, 0]]
    }, 
    {
      "op": "null", 
      "name": "decoder_transformer_4_ff_pre_norm_gamma", 
      "attrs": {"__init__": "[\"constant\", {\"value\": 1.0}]"}, 
      "inputs": []
    }, 
    {
      "op": "null", 
      "name": "decoder_transformer_4_ff_pre_norm_beta", 
      "attrs": {"__init__": "[\"constant\", {\"value\": 0.0}]"}, 
      "inputs": []
    }, 
    {
      "op": "LayerNorm", 
      "name": "decoder_transformer_4_ff_pre_norm", 
      "attrs": {
        "axis": "-1", 
        "eps": "1e-06", 
        "output_mean_var": "False"
      }, 
      "inputs": [[633, 0, 0], [634, 0, 0], [635, 0, 0]]
    }, 
    {
      "op": "null", 
      "name": "decoder_transformer_4_ff_i2h_weight", 
      "inputs": []
    }, 
    {
      "op": "null", 
      "name": "decoder_transformer_4_ff_i2h_bias", 
      "inputs": []
    }, 
    {
      "op": "FullyConnected", 
      "name": "fullyconnected36", 
      "attrs": {
        "flatten": "False", 
        "num_hidden": "2048"
      }, 
      "inputs": [[636, 0, 0], [637, 0, 0], [638, 0, 0]]
    }, 
    {
      "op": "Activation", 
      "name": "activation10", 
      "attrs": {"act_type": "relu"}, 
      "inputs": [[639, 0, 0]]
    }, 
    {
      "op": "Dropout", 
      "name": "dropout28", 
      "attrs": {"p": "0.1"}, 
      "inputs": [[640, 0, 0]]
    }, 
    {
      "op": "null", 
      "name": "decoder_transformer_4_ff_h2o_weight", 
      "inputs": []
    }, 
    {
      "op": "null", 
      "name": "decoder_transformer_4_ff_h2o_bias", 
      "inputs": []
    }, 
    {
      "op": "FullyConnected", 
      "name": "fullyconnected37", 
      "attrs": {
        "flatten": "False", 
        "num_hidden": "512"
      }, 
      "inputs": [[641, 0, 0], [642, 0, 0], [643, 0, 0]]
    }, 
    {
      "op": "Dropout", 
      "name": "decoder_transformer_4_ff_post_dropout", 
      "attrs": {"p": "0.1"}, 
      "inputs": [[644, 0, 0]]
    }, 
    {
      "op": "elemwise_add", 
      "name": "decoder_transformer_4_ff_post_residual", 
      "inputs": [[645, 0, 0], [633, 0, 0]]
    }, 
    {
      "op": "null", 
      "name": "decoder_transformer_5_att_self_pre_norm_gamma", 
      "attrs": {"__init__": "[\"constant\", {\"value\": 1.0}]"}, 
      "inputs": []
    }, 
    {
      "op": "null", 
      "name": "decoder_transformer_5_att_self_pre_norm_beta", 
      "attrs": {"__init__": "[\"constant\", {\"value\": 0.0}]"}, 
      "inputs": []
    }, 
    {
      "op": "LayerNorm", 
      "name": "decoder_transformer_5_att_self_pre_norm", 
      "attrs": {
        "axis": "-1", 
        "eps": "1e-06", 
        "output_mean_var": "False"
      }, 
      "inputs": [[646, 0, 0], [647, 0, 0], [648, 0, 0]]
    }, 
    {
      "op": "null", 
      "name": "decoder_transformer_5_att_self_i2h_weight", 
      "inputs": []
    }, 
    {
      "op": "FullyConnected", 
      "name": "decoder_transformer_5_att_self_qkv_transform", 
      "attrs": {
        "flatten": "False", 
        "no_bias": "True", 
        "num_hidden": "1536"
      }, 
      "inputs": [[649, 0, 0], [650, 0, 0]]
    }, 
    {
      "op": "SliceChannel", 
      "name": "split11", 
      "attrs": {
        "axis": "2", 
        "num_outputs": "3"
      }, 
      "inputs": [[651, 0, 0]]
    }, 
    {
      "op": "_mul_scalar", 
      "name": "_mulscalar18", 
      "attrs": {"scalar": "0.125"}, 
      "inputs": [[652, 0, 0]]
    }, 
    {
      "op": "Reshape", 
      "name": "reshape130", 
      "attrs": {"shape": "(0, -1, 8, 64)"}, 
      "inputs": [[653, 0, 0]]
    }, 
    {
      "op": "transpose", 
      "name": "transpose64", 
      "attrs": {"axes": "(0, 2, 1, 3)"}, 
      "inputs": [[654, 0, 0]]
    }, 
    {
      "op": "Reshape", 
      "name": "reshape131", 
      "attrs": {"shape": "(-3, -1, 64)"}, 
      "inputs": [[655, 0, 0]]
    }, 
    {
      "op": "Reshape", 
      "name": "reshape132", 
      "attrs": {"shape": "(0, -1, 8, 64)"}, 
      "inputs": [[652, 1, 0]]
    }, 
    {
      "op": "transpose", 
      "name": "transpose65", 
      "attrs": {"axes": "(0, 2, 1, 3)"}, 
      "inputs": [[657, 0, 0]]
    }, 
    {
      "op": "Reshape", 
      "name": "reshape133", 
      "attrs": {"shape": "(-3, -1, 64)"}, 
      "inputs": [[658, 0, 0]]
    }, 
    {
      "op": "batch_dot", 
      "name": "decoder_transformer_5_att_self_dot", 
      "attrs": {"transpose_b": "True"}, 
      "inputs": [[656, 0, 0], [659, 0, 0]]
    }, 
    {
      "op": "broadcast_add", 
      "name": "decoder_transformer_5_att_self_bias_add", 
      "inputs": [[660, 0, 0], [23, 0, 0]]
    }, 
    {
      "op": "softmax", 
      "name": "softmax16", 
      "attrs": {"axis": "-1"}, 
      "inputs": [[661, 0, 0]]
    }, 
    {
      "op": "Dropout", 
      "name": "dropout29", 
      "attrs": {"p": "0.1"}, 
      "inputs": [[662, 0, 0]]
    }, 
    {
      "op": "Reshape", 
      "name": "reshape134", 
      "attrs": {"shape": "(0, -1, 8, 64)"}, 
      "inputs": [[652, 2, 0]]
    }, 
    {
      "op": "transpose", 
      "name": "transpose66", 
      "attrs": {"axes": "(0, 2, 1, 3)"}, 
      "inputs": [[664, 0, 0]]
    }, 
    {
      "op": "Reshape", 
      "name": "reshape135", 
      "attrs": {"shape": "(-3, -1, 64)"}, 
      "inputs": [[665, 0, 0]]
    }, 
    {
      "op": "batch_dot", 
      "name": "decoder_transformer_5_att_self_contexts", 
      "inputs": [[663, 0, 0], [666, 0, 0]]
    }, 
    {
      "op": "Reshape", 
      "name": "reshape136", 
      "attrs": {"shape": "(-4, -1, 8, 0, 64)"}, 
      "inputs": [[667, 0, 0]]
    }, 
    {
      "op": "transpose", 
      "name": "transpose67", 
      "attrs": {"axes": "(0, 2, 1, 3)"}, 
      "inputs": [[668, 0, 0]]
    }, 
    {
      "op": "Reshape", 
      "name": "reshape137", 
      "attrs": {"shape": "(-1, 0, 512)"}, 
      "inputs": [[669, 0, 0]]
    }, 
    {
      "op": "null", 
      "name": "decoder_transformer_5_att_self_h2o_weight", 
      "inputs": []
    }, 
    {
      "op": "FullyConnected", 
      "name": "fullyconnected38", 
      "attrs": {
        "flatten": "False", 
        "no_bias": "True", 
        "num_hidden": "512"
      }, 
      "inputs": [[670, 0, 0], [671, 0, 0]]
    }, 
    {
      "op": "Dropout", 
      "name": "decoder_transformer_5_att_self_post_dropout", 
      "attrs": {"p": "0.1"}, 
      "inputs": [[672, 0, 0]]
    }, 
    {
      "op": "elemwise_add", 
      "name": "decoder_transformer_5_att_self_post_residual", 
      "inputs": [[673, 0, 0], [646, 0, 0]]
    }, 
    {
      "op": "null", 
      "name": "decoder_transformer_5_att_enc_pre_norm_gamma", 
      "attrs": {"__init__": "[\"constant\", {\"value\": 1.0}]"}, 
      "inputs": []
    }, 
    {
      "op": "null", 
      "name": "decoder_transformer_5_att_enc_pre_norm_beta", 
      "attrs": {"__init__": "[\"constant\", {\"value\": 0.0}]"}, 
      "inputs": []
    }, 
    {
      "op": "LayerNorm", 
      "name": "decoder_transformer_5_att_enc_pre_norm", 
      "attrs": {
        "axis": "-1", 
        "eps": "1e-06", 
        "output_mean_var": "False"
      }, 
      "inputs": [[674, 0, 0], [675, 0, 0], [676, 0, 0]]
    }, 
    {
      "op": "null", 
      "name": "decoder_transformer_5_att_enc_q2h_weight", 
      "inputs": []
    }, 
    {
      "op": "FullyConnected", 
      "name": "decoder_transformer_5_att_enc_q_transform", 
      "attrs": {
        "flatten": "False", 
        "no_bias": "True", 
        "num_hidden": "512"
      }, 
      "inputs": [[677, 0, 0], [678, 0, 0]]
    }, 
    {
      "op": "_mul_scalar", 
      "name": "_mulscalar19", 
      "attrs": {"scalar": "0.125"}, 
      "inputs": [[679, 0, 0]]
    }, 
    {
      "op": "Reshape", 
      "name": "reshape138", 
      "attrs": {"shape": "(0, -1, 8, 64)"}, 
      "inputs": [[680, 0, 0]]
    }, 
    {
      "op": "transpose", 
      "name": "transpose68", 
      "attrs": {"axes": "(0, 2, 1, 3)"}, 
      "inputs": [[681, 0, 0]]
    }, 
    {
      "op": "Reshape", 
      "name": "reshape139", 
      "attrs": {"shape": "(-3, -1, 64)"}, 
      "inputs": [[682, 0, 0]]
    }, 
    {
      "op": "null", 
      "name": "decoder_transformer_5_att_enc_k2h_weight", 
      "inputs": []
    }, 
    {
      "op": "FullyConnected", 
      "name": "decoder_transformer_5_att_enc_k_transform", 
      "attrs": {
        "flatten": "False", 
        "no_bias": "True", 
        "num_hidden": "512"
      }, 
      "inputs": [[317, 0, 0], [684, 0, 0]]
    }, 
    {
      "op": "Reshape", 
      "name": "reshape140", 
      "attrs": {"shape": "(0, -1, 8, 64)"}, 
      "inputs": [[685, 0, 0]]
    }, 
    {
      "op": "transpose", 
      "name": "transpose69", 
      "attrs": {"axes": "(0, 2, 1, 3)"}, 
      "inputs": [[686, 0, 0]]
    }, 
    {
      "op": "Reshape", 
      "name": "reshape141", 
      "attrs": {"shape": "(-3, -1, 64)"}, 
      "inputs": [[687, 0, 0]]
    }, 
    {
      "op": "batch_dot", 
      "name": "decoder_transformer_5_att_enc_dot", 
      "attrs": {"transpose_b": "True"}, 
      "inputs": [[683, 0, 0], [688, 0, 0]]
    }, 
    {
      "op": "broadcast_add", 
      "name": "decoder_transformer_5_att_enc_bias_add", 
      "inputs": [[689, 0, 0], [329, 0, 0]]
    }, 
    {
      "op": "softmax", 
      "name": "softmax17", 
      "attrs": {"axis": "-1"}, 
      "inputs": [[690, 0, 0]]
    }, 
    {
      "op": "Dropout", 
      "name": "dropout30", 
      "attrs": {"p": "0.1"}, 
      "inputs": [[691, 0, 0]]
    }, 
    {
      "op": "null", 
      "name": "decoder_transformer_5_att_enc_v2h_weight", 
      "inputs": []
    }, 
    {
      "op": "FullyConnected", 
      "name": "decoder_transformer_5_att_enc_v_transform", 
      "attrs": {
        "flatten": "False", 
        "no_bias": "True", 
        "num_hidden": "512"
      }, 
      "inputs": [[317, 0, 0], [693, 0, 0]]
    }, 
    {
      "op": "Reshape", 
      "name": "reshape142", 
      "attrs": {"shape": "(0, -1, 8, 64)"}, 
      "inputs": [[694, 0, 0]]
    }, 
    {
      "op": "transpose", 
      "name": "transpose70", 
      "attrs": {"axes": "(0, 2, 1, 3)"}, 
      "inputs": [[695, 0, 0]]
    }, 
    {
      "op": "Reshape", 
      "name": "reshape143", 
      "attrs": {"shape": "(-3, -1, 64)"}, 
      "inputs": [[696, 0, 0]]
    }, 
    {
      "op": "batch_dot", 
      "name": "decoder_transformer_5_att_enc_contexts", 
      "inputs": [[692, 0, 0], [697, 0, 0]]
    }, 
    {
      "op": "Reshape", 
      "name": "reshape144", 
      "attrs": {"shape": "(-4, -1, 8, 0, 64)"}, 
      "inputs": [[698, 0, 0]]
    }, 
    {
      "op": "transpose", 
      "name": "transpose71", 
      "attrs": {"axes": "(0, 2, 1, 3)"}, 
      "inputs": [[699, 0, 0]]
    }, 
    {
      "op": "Reshape", 
      "name": "reshape145", 
      "attrs": {"shape": "(-1, 0, 512)"}, 
      "inputs": [[700, 0, 0]]
    }, 
    {
      "op": "null", 
      "name": "decoder_transformer_5_att_enc_h2o_weight", 
      "inputs": []
    }, 
    {
      "op": "FullyConnected", 
      "name": "fullyconnected39", 
      "attrs": {
        "flatten": "False", 
        "no_bias": "True", 
        "num_hidden": "512"
      }, 
      "inputs": [[701, 0, 0], [702, 0, 0]]
    }, 
    {
      "op": "Dropout", 
      "name": "decoder_transformer_5_att_enc_post_dropout", 
      "attrs": {"p": "0.1"}, 
      "inputs": [[703, 0, 0]]
    }, 
    {
      "op": "elemwise_add", 
      "name": "decoder_transformer_5_att_enc_post_residual", 
      "inputs": [[704, 0, 0], [674, 0, 0]]
    }, 
    {
      "op": "null", 
      "name": "decoder_transformer_5_ff_pre_norm_gamma", 
      "attrs": {"__init__": "[\"constant\", {\"value\": 1.0}]"}, 
      "inputs": []
    }, 
    {
      "op": "null", 
      "name": "decoder_transformer_5_ff_pre_norm_beta", 
      "attrs": {"__init__": "[\"constant\", {\"value\": 0.0}]"}, 
      "inputs": []
    }, 
    {
      "op": "LayerNorm", 
      "name": "decoder_transformer_5_ff_pre_norm", 
      "attrs": {
        "axis": "-1", 
        "eps": "1e-06", 
        "output_mean_var": "False"
      }, 
      "inputs": [[705, 0, 0], [706, 0, 0], [707, 0, 0]]
    }, 
    {
      "op": "null", 
      "name": "decoder_transformer_5_ff_i2h_weight", 
      "inputs": []
    }, 
    {
      "op": "null", 
      "name": "decoder_transformer_5_ff_i2h_bias", 
      "inputs": []
    }, 
    {
      "op": "FullyConnected", 
      "name": "fullyconnected40", 
      "attrs": {
        "flatten": "False", 
        "num_hidden": "2048"
      }, 
      "inputs": [[708, 0, 0], [709, 0, 0], [710, 0, 0]]
    }, 
    {
      "op": "Activation", 
      "name": "activation11", 
      "attrs": {"act_type": "relu"}, 
      "inputs": [[711, 0, 0]]
    }, 
    {
      "op": "Dropout", 
      "name": "dropout31", 
      "attrs": {"p": "0.1"}, 
      "inputs": [[712, 0, 0]]
    }, 
    {
      "op": "null", 
      "name": "decoder_transformer_5_ff_h2o_weight", 
      "inputs": []
    }, 
    {
      "op": "null", 
      "name": "decoder_transformer_5_ff_h2o_bias", 
      "inputs": []
    }, 
    {
      "op": "FullyConnected", 
      "name": "fullyconnected41", 
      "attrs": {
        "flatten": "False", 
        "num_hidden": "512"
      }, 
      "inputs": [[713, 0, 0], [714, 0, 0], [715, 0, 0]]
    }, 
    {
      "op": "Dropout", 
      "name": "decoder_transformer_5_ff_post_dropout", 
      "attrs": {"p": "0.1"}, 
      "inputs": [[716, 0, 0]]
    }, 
    {
      "op": "elemwise_add", 
      "name": "decoder_transformer_5_ff_post_residual", 
      "inputs": [[717, 0, 0], [705, 0, 0]]
    }, 
    {
      "op": "null", 
      "name": "decoder_transformer_final_process_norm_gamma", 
      "attrs": {"__init__": "[\"constant\", {\"value\": 1.0}]"}, 
      "inputs": []
    }, 
    {
      "op": "null", 
      "name": "decoder_transformer_final_process_norm_beta", 
      "attrs": {"__init__": "[\"constant\", {\"value\": 0.0}]"}, 
      "inputs": []
    }, 
    {
      "op": "LayerNorm", 
      "name": "decoder_transformer_final_process_norm", 
      "attrs": {
        "axis": "-1", 
        "eps": "1e-06", 
        "output_mean_var": "False"
      }, 
      "inputs": [[718, 0, 0], [719, 0, 0], [720, 0, 0]]
    }, 
    {
      "op": "Reshape", 
      "name": "reshape146", 
      "attrs": {"shape": "(-3, 0)"}, 
      "inputs": [[721, 0, 0]]
    }, 
    {
      "op": "null", 
      "name": "target_output_bias", 
      "inputs": []
    }, 
    {
      "op": "FullyConnected", 
      "name": "logits", 
      "attrs": {
        "flatten": "False", 
        "num_hidden": "19581"
      }, 
      "inputs": [[722, 0, 0], [1, 0, 0], [723, 0, 0]]
    }, 
    {
      "op": "null", 
      "name": "target_label", 
      "inputs": []
    }, 
    {
      "op": "Reshape", 
      "name": "reshape0", 
      "attrs": {"shape": "(-1,)"}, 
      "inputs": [[725, 0, 0]]
    }, 
    {
      "op": "SoftmaxOutput", 
      "name": "softmax", 
      "attrs": {
        "ignore_label": "0", 
        "normalization": "valid", 
        "smooth_alpha": "0.1", 
        "use_ignore": "True"
      }, 
      "inputs": [[724, 0, 0], [726, 0, 0]]
    }
  ], 
  "arg_nodes": [
    0, 
    1, 
    8, 
    9, 
    11, 
    34, 
    38, 
    39, 
    41, 
    47, 
    50, 
    52, 
    60, 
    61, 
    63, 
    93, 
    97, 
    98, 
    100, 
    101, 
    105, 
    106, 
    110, 
    111, 
    113, 
    134, 
    138, 
    139, 
    141, 
    142, 
    146, 
    147, 
    151, 
    152, 
    154, 
    175, 
    179, 
    180, 
    182, 
    183, 
    187, 
    188, 
    192, 
    193, 
    195, 
    216, 
    220, 
    221, 
    223, 
    224, 
    228, 
    229, 
    233, 
    234, 
    236, 
    257, 
    261, 
    262, 
    264, 
    265, 
    269, 
    270, 
    274, 
    275, 
    277, 
    298, 
    302, 
    303, 
    305, 
    306, 
    310, 
    311, 
    315, 
    316, 
    318, 
    333, 
    342, 
    346, 
    347, 
    349, 
    350, 
    354, 
    355, 
    359, 
    360, 
    362, 
    383, 
    387, 
    388, 
    390, 
    396, 
    405, 
    414, 
    418, 
    419, 
    421, 
    422, 
    426, 
    427, 
    431, 
    432, 
    434, 
    455, 
    459, 
    460, 
    462, 
    468, 
    477, 
    486, 
    490, 
    491, 
    493, 
    494, 
    498, 
    499, 
    503, 
    504, 
    506, 
    527, 
    531, 
    532, 
    534, 
    540, 
    549, 
    558, 
    562, 
    563, 
    565, 
    566, 
    570, 
    571, 
    575, 
    576, 
    578, 
    599, 
    603, 
    604, 
    606, 
    612, 
    621, 
    630, 
    634, 
    635, 
    637, 
    638, 
    642, 
    643, 
    647, 
    648, 
    650, 
    671, 
    675, 
    676, 
    678, 
    684, 
    693, 
    702, 
    706, 
    707, 
    709, 
    710, 
    714, 
    715, 
    719, 
    720, 
    723, 
    725
  ], 
  "node_row_ptr": [
    0, 
    1, 
    2, 
    3, 
    4, 
    5, 
    6, 
    7, 
    9, 
    10, 
    11, 
    14, 
    15, 
    16, 
    19, 
    20, 
    21, 
    22, 
    23, 
    24, 
    25, 
    26, 
    27, 
    28, 
    29, 
    30, 
    31, 
    33, 
    34, 
    35, 
    36, 
    37, 
    38, 
    39, 
    40, 
    41, 
    42, 
    44, 
    45, 
    46, 
    47, 
    50, 
    51, 
    52, 
    53, 
    54, 
    55, 
    56, 
    57, 
    60, 
    61, 
    62, 
    63, 
    64, 
    65, 
    66, 
    67, 
    68, 
    69, 
    70, 
    72, 
    73, 
    74, 
    77, 
    78, 
    79, 
    82, 
    83, 
    84, 
    85, 
    86, 
    87, 
    88, 
    89, 
    90, 
    93, 
    94, 
    95, 
    96, 
    97, 
    98, 
    99, 
    100, 
    101, 
    102, 
    103, 
    105, 
    106, 
    107, 
    108, 
    109, 
    110, 
    111, 
    112, 
    113, 
    114, 
    116, 
    117, 
    118, 
    119, 
    122, 
    123, 
    124, 
    125, 
    126, 
    128, 
    129, 
    130, 
    131, 
    133, 
    134, 
    135, 
    136, 
    139, 
    140, 
    141, 
    144, 
    145, 
    146, 
    147, 
    148, 
    149, 
    150, 
    151, 
    152, 
    153, 
    154, 
    156, 
    157, 
    158, 
    159, 
    160, 
    161, 
    162, 
    163, 
    164, 
    165, 
    167, 
    168, 
    169, 
    170, 
    173, 
    174, 
    175, 
    176, 
    177, 
    179, 
    180, 
    181, 
    182, 
    184, 
    185, 
    186, 
    187, 
    190, 
    191, 
    192, 
    195, 
    196, 
    197, 
    198, 
    199, 
    200, 
    201, 
    202, 
    203, 
    204, 
    205, 
    207, 
    208, 
    209, 
    210, 
    211, 
    212, 
    213, 
    214, 
    215, 
    216, 
    218, 
    219, 
    220, 
    221, 
    224, 
    225, 
    226, 
    227, 
    228, 
    230, 
    231, 
    232, 
    233, 
    235, 
    236, 
    237, 
    238, 
    241, 
    242, 
    243, 
    246, 
    247, 
    248, 
    249, 
    250, 
    251, 
    252, 
    253, 
    254, 
    255, 
    256, 
    258, 
    259, 
    260, 
    261, 
    262, 
    263, 
    264, 
    265, 
    266, 
    267, 
    269, 
    270, 
    271, 
    272, 
    275, 
    276, 
    277, 
    278, 
    279, 
    281, 
    282, 
    283, 
    284, 
    286, 
    287, 
    288, 
    289, 
    292, 
    293, 
    294, 
    297, 
    298, 
    299, 
    300, 
    301, 
    302, 
    303, 
    304, 
    305, 
    306, 
    307, 
    309, 
    310, 
    311, 
    312, 
    313, 
    314, 
    315, 
    316, 
    317, 
    318, 
    320, 
    321, 
    322, 
    323, 
    326, 
    327, 
    328, 
    329, 
    330, 
    332, 
    333, 
    334, 
    335, 
    337, 
    338, 
    339, 
    340, 
    343, 
    344, 
    345, 
    348, 
    349, 
    350, 
    351, 
    352, 
    353, 
    354, 
    355, 
    356, 
    357, 
    358, 
    360, 
    361, 
    362, 
    363, 
    364, 
    365, 
    366, 
    367, 
    368, 
    369, 
    371, 
    372, 
    373, 
    374, 
    377, 
    378, 
    379, 
    380, 
    381, 
    383, 
    384, 
    385, 
    386, 
    388, 
    389, 
    390, 
    391, 
    394, 
    395, 
    396, 
    397, 
    398, 
    399, 
    400, 
    401, 
    402, 
    403, 
    404, 
    405, 
    406, 
    407, 
    408, 
    410, 
    411, 
    412, 
    413, 
    414, 
    415, 
    416, 
    417, 
    418, 
    419, 
    420, 
    421, 
    423, 
    424, 
    425, 
    426, 
    429, 
    430, 
    431, 
    432, 
    433, 
    435, 
    436, 
    437, 
    438, 
    440, 
    441, 
    442, 
    443, 
    446, 
    447, 
    448, 
    451, 
    452, 
    453, 
    454, 
    455, 
    456, 
    457, 
    458, 
    459, 
    460, 
    461, 
    463, 
    464, 
    465, 
    466, 
    467, 
    468, 
    469, 
    470, 
    471, 
    472, 
    474, 
    475, 
    476, 
    477, 
    480, 
    481, 
    482, 
    483, 
    484, 
    485, 
    486, 
    487, 
    488, 
    489, 
    490, 
    491, 
    492, 
    493, 
    494, 
    496, 
    497, 
    498, 
    499, 
    500, 
    501, 
    502, 
    503, 
    504, 
    505, 
    506, 
    507, 
    509, 
    510, 
    511, 
    512, 
    515, 
    516, 
    517, 
    518, 
    519, 
    521, 
    522, 
    523, 
    524, 
    526, 
    527, 
    528, 
    529, 
    532, 
    533, 
    534, 
    537, 
    538, 
    539, 
    540, 
    541, 
    542, 
    543, 
    544, 
    545, 
    546, 
    547, 
    549, 
    550, 
    551, 
    552, 
    553, 
    554, 
    555, 
    556, 
    557, 
    558, 
    560, 
    561, 
    562, 
    563, 
    566, 
    567, 
    568, 
    569, 
    570, 
    571, 
    572, 
    573, 
    574, 
    575, 
    576, 
    577, 
    578, 
    579, 
    580, 
    582, 
    583, 
    584, 
    585, 
    586, 
    587, 
    588, 
    589, 
    590, 
    591, 
    592, 
    593, 
    595, 
    596, 
    597, 
    598, 
    601, 
    602, 
    603, 
    604, 
    605, 
    607, 
    608, 
    609, 
    610, 
    612, 
    613, 
    614, 
    615, 
    618, 
    619, 
    620, 
    623, 
    624, 
    625, 
    626, 
    627, 
    628, 
    629, 
    630, 
    631, 
    632, 
    633, 
    635, 
    636, 
    637, 
    638, 
    639, 
    640, 
    641, 
    642, 
    643, 
    644, 
    646, 
    647, 
    648, 
    649, 
    652, 
    653, 
    654, 
    655, 
    656, 
    657, 
    658, 
    659, 
    660, 
    661, 
    662, 
    663, 
    664, 
    665, 
    666, 
    668, 
    669, 
    670, 
    671, 
    672, 
    673, 
    674, 
    675, 
    676, 
    677, 
    678, 
    679, 
    681, 
    682, 
    683, 
    684, 
    687, 
    688, 
    689, 
    690, 
    691, 
    693, 
    694, 
    695, 
    696, 
    698, 
    699, 
    700, 
    701, 
    704, 
    705, 
    706, 
    709, 
    710, 
    711, 
    712, 
    713, 
    714, 
    715, 
    716, 
    717, 
    718, 
    719, 
    721, 
    722, 
    723, 
    724, 
    725, 
    726, 
    727, 
    728, 
    729, 
    730, 
    732, 
    733, 
    734, 
    735, 
    738, 
    739, 
    740, 
    741, 
    742, 
    743, 
    744, 
    745, 
    746, 
    747, 
    748, 
    749, 
    750, 
    751, 
    752, 
    754, 
    755, 
    756, 
    757, 
    758, 
    759, 
    760, 
    761, 
    762, 
    763, 
    764, 
    765, 
    767, 
    768, 
    769, 
    770, 
    773, 
    774, 
    775, 
    776, 
    777, 
    779, 
    780, 
    781, 
    782, 
    784, 
    785, 
    786, 
    787, 
    790, 
    791, 
    792, 
    795, 
    796, 
    797, 
    798, 
    799, 
    800, 
    801, 
    802, 
    803, 
    804, 
    805, 
    807, 
    808, 
    809, 
    810, 
    811, 
    812, 
    813, 
    814, 
    815, 
    816, 
    818, 
    819, 
    820, 
    821, 
    824, 
    825, 
    826, 
    827, 
    828, 
    829, 
    830, 
    831, 
    832, 
    833, 
    834, 
    835, 
    836, 
    837, 
    838, 
    840, 
    841, 
    842, 
    843, 
    844, 
    845, 
    846, 
    847, 
    848, 
    849, 
    850, 
    851, 
    853, 
    854, 
    855, 
    856, 
    859, 
    860, 
    861, 
    862, 
    863, 
    865, 
    866, 
    867, 
    868, 
    870, 
    871, 
    872, 
    873, 
    876, 
    877, 
    878, 
    879, 
    880, 
    881, 
    882
  ], 
  "heads": [[727, 0, 0]], 
  "attrs": {"mxnet_version": ["int", 10300]}
}